models/Learned.pt (torch, 546263 bytes, 96 tensors)

net.first.blocks.0.0.weight f4 [16, 2, 3, 3]
0.17706275 0.20768641 -0.04454675 0.20014241 -0.054971028 0.058348745 -0.12421509 0.14324696
0.21547729 -0.17830136 0.20271054 0.04905317 0.16666448 0.025945352 0.11975131 -0.040019717
0.1763149 0.04079413 -0.105980575 0.062012617 -0.105449215 -0.0261611 -0.08978649 0.16278258
-0.18227707 -0.100319415 -0.06095834 -0.14495271 0.017536925 -0.23759146 0.20801255 -0.20719099
0.17514908 0.038242478 -0.076740205 0.14616016 0.045485765 0.1984487 0.029573806 -0.066299826
0.07102329 -0.058091436 0.10527825 0.21663612 0.14129627 -0.11211593 0.1280799 0.032971658
0.10755459 -0.1508362 -0.23432587 -0.092722885 -0.17558618 0.19576405 0.05857122 0.087319076
0.063945465 -0.013205122 0.17615929 -0.17640448 0.0076432917 -0.16752782 0.06390672 -0.08768953
0.06539546 -0.053913683 0.18444145 -0.15076467 -0.14994542 -0.1469265 0.20507051 0.07411499
0.23782027 -0.18469192 -0.22257926 -0.17375314 -0.14938733 0.10129825 0.094511464 0.20485586
-0.11819861 -0.15658517 0.13014847 -0.08983234 0.14726458 -0.05011513 0.14031458 -0.17898002
-0.11308719 0.07738088 0.047430012 -0.061833397 0.13900211 0.15508726 -0.17542545 -0.13391426
0.21066944 -0.08516487 -0.092276275 -0.21913607 -0.13155076 0.0638086 -0.027666105 -0.18271473
0.0038005428 -0.15792513 -0.20784186 -0.1308382 -0.19980885 -0.14166076 0.24292752 0.050187282
0.08112645 -0.21037732 -0.14974536 -0.07322373 0.04526752 -0.20621459 -0.097789116 -0.141517
0.002751145 -0.079120606 -0.01708761 -0.16253611 -0.16190174 -0.14155114 -0.051384453 -0.18035051
0.19140403 -0.024061628 0.21523198 0.06979092 -0.18317954 0.17942277 -0.058332123 -0.084560685
-0.20122017 -0.24439225 0.076779604 -0.04958576 0.08523605 -0.18399583 0.17919555 -0.17320263
-0.05125756 0.04083817 0.12118568 0.18126695 0.20800945 -0.18800841 0.052089974 -0.10662716
-0.0277132 -0.16610308 0.22389258 -0.17206246 0.12702864 0.08642155 0.07474444 -0.13274509
0.2131201 0.043793768 0.027549665 -0.21267551 0.08367468 -0.03952505 -0.115136705 0.18589354
0.052534558 -0.13519654 -0.12973158 -0.0053152386 0.13825369 -0.052605126 -0.13076358 -0.076003626
-0.1698387 0.08863207 0.18903424 -0.21928869 0.06538643 0.13495135 0.05032241 -0.075854674
0.13022833 0.12501346 0.099546306 -0.032726415 -0.056193154 0.032922942 -0.032782655 -0.06327209
0.15540539 0.20804015 -0.02029907 -0.04613821 0.011272488 -0.008088945 0.06028197 0.06963188
-0.21339211 -0.08451564 0.20128378 0.09175839 -0.007010857 -0.13787651 -0.14044699 -0.20881702
-0.07654924 0.08277872 0.1508093 0.10742613 -0.20542845 -0.14366238 -0.04037354 0.23142959
0.040804375 -0.053615563 0.100755714 -0.083377324 -0.14718536 0.17128973 -0.103189655 -0.046017017
-0.24673782 0.16792677 0.18998057 0.0944218 -0.1555947 -0.22758712 -0.18245603 0.1788249
0.11167116 0.20545371 0.14692979 0.07817219 0.006345856 -0.15929747 -0.18725498 -0.21703869
0.12165063 -0.09835658 -0.042456407 -0.13147329 -0.04097534 -0.16606218 -0.15254374 0.0768545
-0.07611023 0.1503278 -0.07299572 -0.17373905 -0.033070073 -0.11023944 -0.068895556 -0.22187103
00000000: f04f 353e bfab 543e a776 36bd 22f2 4c3e
00000010: 4d29 61bd 18ff 6e3d 7b64 febd 55af 123e
00000020: 14a6 5c3e a294 36be 5a93 4f3e faeb 483d
00000030: 18aa 2a3e 598b d43c 2d40 f53d b7eb 23bd
00000040: e58b 343e bf17 273d 580c d9bd f100 7e3d
00000050: c2f5 d7bd ce4f d6bc fbe1 b7bd 7ab0 263e
00000060: d7a6 3abe 4474 cdbd 74af 79bd 7c6e 14be
00000070: 99a9 8f3c 2d4b 73be 3e01 553e e029 54be
00000080: 485a 333e 25a4 1c3d f829 9dbd 02ab 153e
00000090: 484f 3a3d 2336 4b3e c444 f23c 34c8 87bd
000000a0: a974 913d 49f1 6dbd 209c d73d dcd5 5d3e
000000b0: f8af 103e 099d e5bd 6127 033e 4a0d 073d
000000c0: 9545 dc3d ce74 1abe 1ff3 6fbe 7fe5 bdbd
000000d0: ddcc 33be 5f76 483e 60e8 6f3d 58d4 b23d
000000e0: d7f5 823d 4c5a 58bc 1a63 343e 60a3 34be
000000f0: 9474 fa3b 6a8c 2bbe 87e1 823d 9196 b3bd
00000100: 0eee 853d 98d4 5cbd 38de 3c3e 0e62 1abe
00000110: 4b8b 19be e773 16be 01fe 513e 9ac9 973d
00000120: 2887 733e e11f 3dbe d1eb 63be 58ec 31be
00000130: fef8 18be 7575 cf3d 3a8f c13d bcc5 513e
00000140: 1d12 f2bd dd57 20be a445 053e 05fa b7bd
00000150: 87cc 163e 8645 4dbd a0ae 0f3e 8a46 37be
00000160: 429a e7bd de79 9e3d f945 423d 0445 7dbd
00000170: 9256 0e3e 32cf 1e3e bba2 33be d220 09be
00000180: bbb9 573e eb6a aebd 58fb bcbd 3565 60be
00000190: 3eb5 06be 15ae 823d 07a4 e2bc 9219 3bbe
000001a0: 8712 793b 20b7 21be 7fd4 54be 73fa 05be
000001b0: b19a 4cbe 850f 11be fec1 783e 2e91 4d3d
000001c0: a025 a63d 276d 57be d956 19be 53f6 95bd
000001d0: 6f6a 393d eb29 53be a945 c8bd d5e9 10be
000001e0: 8e4c 343b fc09 a2bd 51fb 8bbc de6f 26be
000001f0: 92c9 25be c8f2 10be 8178 52bd cead 38be
00000200: 6bff 433e e41c c5bc c665 5c3e 8bee 8e3d
00000210: 6b93 3bbe 9aba 373e aaed 6ebd 272e adbd
00000220: a90c 4ebe f641 7abe a03e 9d3d 701a 4bbd
00000230: 3d90 ae3d 6769 3cbe 0a7f 373e 085c 31be
00000240: 72f3 51bd ed45 273d 3330 f83d 0b9e 393e
00000250: 6e00 553e 4785 40be 4c5c 553d 575f dabd
00000260: cb06 e3bc ed16 2abe 1944 653e 2431 30be
00000270: cc13 023e c8fd b03d 9d13 993d 54ee 07be
00000280: 283c 5a3e 1861 333d d6af e13c 9cc7 59be
00000290: a15d ab3d 05e5 21bd cbcc ebbd e05a 3e3e
000002a0: 7a2e 573d f670 0abe 5bd8 04be 742b aebb
000002b0: 6092 0d3e 7978 57bd e3e6 05be caa7 9bbd
000002c0: 32ea 2dbe bb84 b53d 3192 413e 378d 60be
000002d0: 52e9 853d b030 0a3e df1e 4e3d b259 9bbd
000002e0: 935a 053e 8703 003e efde cb3d 220c 06bd
000002f0: cb2a 66bd 35da 063d 1b47 06bd cc94 81bd
00000300: 9722 1f3e 7a08 553e 3c4a a6bc 6bfb 3cbd
00000310: 3eb0 383c 7f87 04bc 3aea 763d 299b 8e3d
00000320: 7683 5abe 8916 adbd 561d 4e3e d3eb bb3d
00000330: 55bb e5bb 802f 0dbe 56d1 0fbe 21d4 55be
00000340: d9c5 9cbd e487 a93d c16d 1a3e 3b02 dc3d
00000350: d65b 52be 3b1c 13be ba5e 25bd e1fb 6c3e
00000360: 7d22 273d fe9b 5bbd 0359 ce3d bbc1 aabd
00000370: c2b7 16be 9366 2f3e 1955 d3bd 577c 3cbd
00000380: d7a8 7cbe fff4 2b3e 448a 423e 3760 c13d
00000390: 3854 1fbe 990c 69be c1d5 3abe e01d 373e
000003a0: d9b3 e43d 7562 523e c374 163e be18 a03d
000003b0: e6f0 cf3b e01e 23be c5bf 3fbe 643f 5ebe
000003c0: f723 f93d 2d6f c9bd c5e6 2dbd efa0 06be
000003d0: c2d5 27bd 340c 2abe 6d34 1cbe e465 9d3d
000003e0: aedf 9bbd 88ef 193e c87e 95bd a6e8 31be
000003f0: 7c74 07bd 37c5 e1bd 1d19 8dbd 2932 63be

net.first.blocks.0.1.weight f4 [16]
0.9935227 0.9992788 1.0046957 1.0007316 1.004447 1.0062617 0.9967136 1.0087664
0.99549425 0.9917234 1.0076959 1.005987 0.99265796 1.0065163 1.0043821 1.0043031
00000000: 8157 7e3f bcd0 7f3f de99 803f f917 803f
00000010: b891 803f 2fcd 803f 9f28 7f3f 421f 813f
00000020: b6d8 7e3f 96e1 7d3f 2efc 803f 2fc4 803f
00000030: d51e 7e3f 87d5 803f 988f 803f 018d 803f

net.first.blocks.0.1.bias f4 [16]
-0.0088277375 -0.0023036818 0.003453197 -0.0037635672 0.007900066 0.007869578 -0.00645152 0.0041420837
0.007331874 -0.010368998 0.004531204 0.0022292475 -0.009137816 0.005627546 0.0029576258 -0.00041880974
00000000: 37a2 10bc 5ef9 16bb 084f 623b 2ea6 76bb
00000010: 476f 013c 67ef 003c 4667 d3bb 51ba 873b
00000020: 3840 f03b bbe2 29bc 7e7a 943b 9118 123b
00000030: c7b6 15bc 4767 b83b bad4 413b b193 dbb9

net.first.blocks.0.1.running_mean f4 [16]
1.1225393 -0.21446402 -0.45880187 -0.10257564 -0.19464535 -1.7983568 -1.8759068 -1.0725623
0.5658246 -0.4714977 0.48919103 -0.21323149 0.64678836 -1.1202321 -0.3312394 -1.3033789
00000000: 5eaf 8f3f 759c 5bbe 14e8 eabe 2d13 d2bd
00000010: 1c51 47be 8e30 e6bf b71d f0bf b949 89bf
00000020: e2d9 103f 2668 f1be 3f77 fa3e 5b59 5abe
00000030: ec93 253f c463 8fbf 3698 a9be 1fd5 a6bf

net.first.blocks.0.1.running_var f4 [16]
339.42032 10.984994 97.20533 4.9802284 11.990525 1033.5978 1056.9517 370.95233
100.04051 64.11824 62.325718 14.212286 151.68044 361.7066 35.756054 585.0921
00000000: cdb5 a943 89c2 2f41 2169 c242 085e 9f40
00000010: 31d9 3f41 2133 8144 741e 8444 e679 b943
00000020: be14 c842 8a3c 8042 894d 7942 8665 6341
00000030: 31ae 1743 72da b443 3306 0f42 e545 1244

net.first.blocks.1.0.weight f4 [16, 16, 3, 3]
0.0758615 -0.009165641 -0.004389816 -0.02716141 -0.069441095 -0.07425972 0.037905548 -0.03939803
-0.04652017 -0.015440461 -0.039031524 -0.04368241 0.0015475608 -0.012503161 -0.0249864 -0.03727555
-0.063568756 0.07331851 -0.03621882 0.017852595 -0.034763712 0.0025368673 0.07262736 0.031628225
-0.07771785 0.027014153 0.07254776 0.02702257 0.059916954 0.08844549 -0.009265703 0.02381479
-0.05075638 -0.011442481 0.06745839 0.0487928 -0.05854113 -0.07313463 -0.063824885 -0.08752571
-0.06988887 -0.027255394 0.05103051 0.008505514 -0.06918341 -0.07022798 0.036499254 -0.06834743
-0.014409347 0.034584317 -0.04499187 -0.014226021 -0.012983104 -0.026030937 -0.04586273 -0.07950368
-0.07363079 -0.048775736 0.07499907 -0.04652839 -0.061058093 0.014402484 0.016741073 0.041009013
0.057076547 0.0395523 -0.086682715 0.0019403262 0.044580195 -0.012631966 -0.054931693 0.07324337
-0.023790924 -0.042758465 -0.06868644 0.01136348 0.043750513 0.02619808 0.023546107 -0.0565712
-0.07053736 -0.0028734736 0.069709286 0.04557026 -0.054143284 -0.018310329 -0.066328116 -0.046236113
0.0074886917 0.03883124 0.06804783 -0.074576624 0.060313538 -0.056704517 0.036420967 0.077600956
0.00392238 0.08126493 -0.06364288 -0.03707185 0.04037116 -0.026499504 -0.016992133 -0.036602687
0.050978836 0.04328744 0.027574956 -0.04847552 -0.062382914 0.015599509 0.032194026 -0.033843316
-0.017557757 0.06294506 0.012303932 0.009663722 -0.014152674 -0.07988636 -0.08421909 -0.045937654
-0.046959456 0.019971881 -0.03022179 -0.037865825 0.073427215 0.022943633 0.053324766 -0.048767377
-0.040650822 0.025147513 -0.0634715 -0.06045626 -0.009550083 -0.037251893 -0.06743134 0.04605404
0.062170897 0.006995838 -0.017917603 -0.0820875 -0.03681344 0.016692108 0.033701133 -0.016944062
-0.027942082 0.055362005 -0.06611913 0.060195275 -0.023494905 0.0034357787 -0.004967434 0.019666817
-0.013066273 0.06348166 0.0005589634 0.06790179 0.07594445 -0.041398633 -0.07109931 0.058402594
0.06427074 -0.08269947 -0.0054132617 -0.08138698 -0.06602259 0.0148279285 0.021313816 0.02005247
-0.026366835 0.07339907 0.009699214 -0.045278866 -0.0018265769 0.023882592 0.021504173 -0.065596126
0.024473244 -0.055286504 -0.079614975 -0.05252715 0.08084482 0.071514115 0.07216893 0.05152103
0.06417761 -0.012282468 -0.04148652 0.043117203 -0.043595947 -0.053939383 -0.02413911 0.020491317
0.041483607 -0.033533223 -0.047280632 0.0080478145 -0.052052304 -0.055822346 0.045984305 -0.010692213
0.07972671 0.079618156 0.023857407 0.030739732 0.015874462 -0.0014619724 -0.005149756 0.0049461974
0.03629349 0.08185618 -0.020557016 -0.035859153 -0.01776854 -0.0435597 0.011716965 0.06367751
0.0757248 0.046943195 -0.056603175 -0.037128713 -0.0112704355 -0.009597923 0.017244073 -0.06646387
0.037706364 -0.06056636 -0.048980497 -0.06419653 0.07079491 -0.078445405 0.06766917 -0.006742317
-0.011792871 0.054473955 -0.007222883 0.052202467 0.061698347 -0.06227064 0.041857902 0.027149051
0.027687188 0.023120394 0.03388508 -0.03510862 -0.0077647553 0.08278207 0.059136778 -0.0016835929
-0.08305641 -0.000101835685 -0.056201477 0.06171762 -0.044731442 0.0009921173 -0.017753087 0.012947623
00000000: 465d 9b3d 7c2b 16bc 72d8 8fbb 9b81 debc
00000010: 2237 8ebd 7b15 98bd d942 1b3d d45f 21bd
00000020: ef8b 3ebd fdf9 7cbc 85df 1fbd 54ec 32bd
00000030: 86d7 ca3a 0fda 4cbc 47b0 ccbc 3fae 18bd
00000040: 5630 82bd 0428 963d 2f5a 14bd 9b3f 923c
00000050: 6564 0ebd 9241 263b a7bd 943d 998c 013d
00000060: 892a 9fbd c94c dd3c ec93 943d 705e dd3c
00000070: 7b6b 753d e922 b53d 2dcf 17bc 3c17 c33c
00000080: ece5 4fbd 3e79 3bbc a027 8a3d f6da 473d
00000090: d3c8 6fbd 9cc7 95bd 9fb6 82bd ae40 b3bd
000000a0: e521 8fbd b446 dfbc 5e05 513d b65a 0b3c
000000b0: 08b0 8dbd b0d3 8fbd 3e80 153d bdf9 8bbd
000000c0: 2f15 6cbc 49a8 0d3d 6549 38bd 4214 69bc
000000d0: 16b7 54bc d53e d5bc 8fda 3bbd d3d2 a2bd
000000e0: bdcb 96bd 11c9 47bd 1d99 993d 8e94 3ebd
000000f0: 0d18 7abd 65f8 6b3c 9324 893c 11f9 273d
00000100: 19c9 693d 9801 223d b586 b1bd 8b52 fe3a
00000110: b999 363d 4ef6 4ebc 0e00 61bd 9f00 963d
00000120: 2fe5 c2bc 8023 2fbd 7aab 8cbd e42d 3a3c
00000130: bd33 333d 5b9d d63c c4e3 c03c 34b7 67bd
00000140: e475 90bd e350 3cbb bec3 8e3d e2a7 3a3d
00000150: 59c5 5dbd 8bff 95bc 09d7 87bd 1462 3dbd
00000160: b363 f53b 820d 1f3d a95c 8b3d a1bb 98bd
00000170: 540b 773d ff42 68bd 272e 153d 40ed 9e3d
00000180: 4f87 803b 3a6e a63d 3357 82bd a7d8 17bd
00000190: 3b5c 253d 7d15 d9bc 1633 8bbc b3ec 15bd
000001a0: 2fcf 503d 2c4e 313d e0e4 e13c 448e 46bd
000001b0: 3a85 7fbd 1595 7f3c e2dd 033d 4a9f 0abd
000001c0: 49d5 8fbc 57e9 803d 6e96 493c 9654 1e3c
000001d0: 9ee0 67bc 769b a3bd 0f7b acbd 1f29 3cbd
000001e0: 8f58 40bd 129c a33c b093 f7bc 3219 1bbd
000001f0: 0261 963d 49f4 bb3c 126b 5a3d 4dc0 47bd
00000200: 7a81 26bd 2802 ce3c 59fd 81bd fca0 77bd
00000210: f477 1cbc 7195 18bd 7119 8abd 29a3 3c3d
00000220: e9a6 7e3d 583d e53b f0c7 92bc 7e1d a8bd
00000230: b1c9 16bd e3bd 883c 330a 0a3d 46ce 8abc
00000240: cbe6 e4bc 45c3 623d 7769 87bd 528f 763d
00000250: 6378 c0bc cd2a 613b dbc5 a2bb 4e1c a13c
00000260: ec13 56bc ac02 823d 6687 123a 1810 8b3d
00000270: c488 9b3d 9d91 29bd 849c 91bd 8f37 6f3d
00000280: 61a0 833d 575e a9bd bb61 b1bb 38ae a6bd
00000290: da36 87bd d7f0 723c 509a ae3c 1445 a43c
000002a0: 43ff d7bc 4052 963d 74e9 1e3c 5576 39bd
000002b0: c069 efba 6da5 c33c 8529 b03c 4357 86bd
000002c0: 1d7c c83c 1a74 62bd 2d0d a3bd b526 57bd
000002d0: f891 a53d fe75 923d 4ecd 933d b707 533d
000002e0: 8d6f 833d 683c 49bc c5ed 29bd aa9b 303d
000002f0: aa91 32bd 8bef 5cbd 62bf c5bc 68dd a73c
00000300: b7ea 293d 225a 09bd 56a9 41bd fbda 033c
00000310: cc34 55bd f9a5 64bd 0a5a 3c3d 642e 2fbc
00000320: c247 a33d d80e a33d 9c70 c33c e4d1 fb3c
00000330: 290b 823c a79f bfba 49bf a8bb b613 a23b
00000340: 7ca8 143d 37a4 a73d 3067 a8bc 0ce1 12bd
00000350: 548f 91bc a86b 32bd 83f8 3f3c 5b69 823d
00000360: 9b15 9b3d 8247 403d bbd8 67bd 4714 18bd
00000370: a2a7 38bc 9b40 1dbc 7143 8d3c 361e 88bd
00000380: fd71 1a3d 6e14 78bd c69f 48bd 7879 83bd
00000390: ecfc 903d fca7 a0bd 2296 8a3d a8ee dcbb
000003a0: e336 41bc 1520 5f3d efad ecbb 41d2 553d
000003b0: 68b7 7c3d 800f 7fbd 3173 2b3d b067 de3c
000003c0: 3ed0 e23c fb66 bd3c 15cb 0a3d 0ece 0fbd
000003d0: 7d6f febb a589 a93d 6839 723d 01ac dcba
000003e0: 7b19 aabd 9e90 d5b8 8533 66bd 9dcb 7c3d
000003f0: 5138 37bd ef09 823a ec6e 91bc 4422 543c

net.first.blocks.1.1.weight f4 [16]
0.99480516 0.99004203 0.9903864 1.0016524 0.99842006 0.99479413 1.0138416 1.0003407
1.000097 1.0043807 0.99683976 0.9971189 0.9945599 0.9944644 0.9940514 0.9982303
00000000: 8dab 7e3f 6573 7d3f f789 7d3f 2536 803f
00000010: 7598 7f3f d4aa 7e3f 90c5 813f 2a0b 803f
00000020: 2e03 803f 8c8f 803f e430 7f3f 2f43 7f3f
00000030: 7a9b 7e3f 3895 7e3f 277a 7e3f 058c 7f3f

net.first.blocks.1.1.bias f4 [16]
-0.0043089627 -0.005401254 0.011571776 -0.0043465015 0.0006089577 0.0048197405 0.0012134332 0.024055904
0.006014617 0.0015674599 0.005716014 0.0015371296 -0.011454065 0.007576151 -0.011965071 -0.016708229
00000000: 3332 8dbb 01fd b0bb 8c97 3d3c 196d 8ebb
00000010: 76a2 1f3a eaee 9d3b 100c 9f3a e310 c53c
00000020: 4416 c53b 3a73 cd3a 674d bb3b 8379 c93a
00000030: d5a9 3bbc 5c41 f83b 2509 44bc b2df 88bc

net.first.blocks.1.1.running_mean f4 [16]
-0.37487665 0.12356443 -0.36036202 0.14431567 0.08149547 -0.18382376 0.5177708 -0.24781324
-0.1614918 0.023233607 0.23887026 -0.31519347 0.48380962 -0.48091924 0.07754128 0.4147873
00000000: d5ef bfbe 590f fd3d 5f81 b8be 7dc7 133e
00000010: 19e7 a63d 4c3c 3cbe a18c 043f c1c2 7dbe
00000020: 1b5e 25be 6854 be3c 689a 743e 0a61 a1be
00000030: e5b5 f73e 0c3b f6be f6cd 9e3d 005f d43e

net.first.blocks.1.1.running_var f4 [16]
0.285762 0.14682108 1.0984182 0.043263916 0.033459395 0.14197305 0.496843 0.53677654
0.05080595 0.06537323 0.22885546 0.25472876 0.1478458 0.37139118 0.72474116 0.14119367
00000000: 664f 923e 4458 163e f898 8c3f 8135 313d
00000010: b80c 093d 6261 113e 3562 fe3e 306a 093f
00000020: e619 503d 66e2 853d 1659 6a3e cf6b 823e
00000030: e464 173e fc26 be3e a388 393f 1395 103e

net.first.shortcut.0.weight f4 [16, 2, 1, 1]
0.5420048 0.15683104 0.39047566 0.12725857 0.6087744 0.41864115 0.51398706 -0.08718419
-0.5801174 -0.34077874 0.2315763 0.5052819 -0.26137733 0.59968317 0.12528807 -0.00018327982
0.016163608 -0.13570449 0.6558496 0.03697418 0.43197268 -0.5980245 -0.35674316 0.086859934
0.56564355 0.33574668 0.12059442 -0.71229666 0.0007542249 -0.4764097 -0.6107695 0.08977254
00000000: d4c0 0a3f 5198 203e 6dec c73e 1250 023e
00000010: a4d8 1b3f 2258 d63e a894 033f a08d b2bd
00000020: 9382 14bf 8d7a aebe 5622 6d3e 285a 013f
00000030: 40d3 85be d684 193f 844b 003e cd2e 40b9
00000040: 8b69 843c 1ef6 0abe c2e5 273f 3d72 173d
00000050: 862b dd3e 2218 19bf 0aa7 b6be 9fe3 b13d
00000060: 04ce 103f fde6 ab3e 35fa f63d 1359 36bf
00000070: 2db7 453a f9eb f3be 645b 1cbf aada b73d

net.first.shortcut.1.weight f4 [16]
1.0052043 1.0099323 1.0095733 0.9984186 1.0016004 1.0052104 0.9860493 0.999528
0.99992144 0.99563396 1.0031655 1.0028919 1.0054381 1.0055233 1.0058324 1.0015517
00000000: 89aa 803f 7645 813f b339 813f 5d98 7f3f
00000010: 7134 803f bcaa 803f ba6d 7c3f 11e1 7f3f
00000020: dafa 7f3f dee1 7e3f ba67 803f c35e 803f
00000030: 32b2 803f fdb4 803f 1ebf 803f d932 803f

net.first.shortcut.1.bias f4 [16]
-0.0043089627 -0.005401254 0.011571776 -0.0043465015 0.0006089577 0.0048197405 0.0012134332 0.024055904
0.006014617 0.0015674599 0.005716014 0.0015371296 -0.011454065 0.007576151 -0.011965071 -0.016708229
00000000: 3332 8dbb 01fd b0bb 8c97 3d3c 196d 8ebb
00000010: 76a2 1f3a eaee 9d3b 100c 9f3a e310 c53c
00000020: 4416 c53b 3a73 cd3a 674d bb3b 8379 c93a
00000030: d5a9 3bbc 5c41 f83b 2509 44bc b2df 88bc

net.first.shortcut.1.running_mean f4 [16]
0.3554742 0.28209853 0.8410726 -0.09271696 -0.6955232 0.9503988 1.0589709 0.01578556
-0.24516876 0.15174676 -1.0340002 0.11235709 0.6844929 -1.2822613 -0.86790305 0.084980845
00000000: b700 b63e 386f 903e 8950 573f 64e2 bdbd
00000010: cf0d 32bf 564d 733f 5c8c 873f b850 813c
00000020: 850d 7bbe 8163 1b3e 1e5a 84bf 791b e63d
00000030: ed3a 2f3f 2321 a4bf e52e 5ebf 700a ae3d

net.first.shortcut.1.running_var f4 [16]
26.81417 17.636686 190.04134 8.091618 126.00717 276.11758 388.02768 0.0003533486
19.886702 1.5551498 385.59988 8.066069 122.30759 547.8224 245.17032 8.560951
00000000: 6c83 d641 ef17 8d41 950a 3e43 4477 0141
00000010: ac03 fc42 0d0f 8a43 8b03 c243 a541 b939
00000020: f717 9f41 260f c73f c9cc c043 9e0e 0141
00000030: 7c9d f442 a2f4 0844 9a2b 7543 a8f9 0841

net.first.bnorm.weight f4 [16]
1.0014117 1.0134156 1.0000194 0.99668264 0.99181837 1.0058895 0.99020195 1.0099493
0.9866246 0.99371904 0.9909604 1.0111234 0.9974361 1.0021354 1.0084413 1.0096096
00000000: 422e 803f 9ab7 813f a300 803f 9826 7f3f
00000010: cfe7 7d3f fdc0 803f e07d 7d3f 0546 813f
00000020: 6e93 7c3f 5f64 7e3f 95af 7d3f 7e6c 813f
00000030: f957 7f3f f945 803f 9b14 813f e33a 813f

net.first.bnorm.bias f4 [16]
0.000475231 -0.0069888122 0.0036164967 -0.009975588 0.00083871646 -0.0038788875 -0.0012345773 0.0036110731
-0.0007774374 -0.0045181145 -0.004903244 0.00155682 0.003663189 0.00048596782 0.0039920956 0.003633077
00000000: 6d28 f939 6802 e5bb bf02 6d3b a670 23bc
00000010: 4fdd 5b3a ef34 7ebb 8ad1 a1ba c1a7 6c3b
00000020: f1cc 4bba b10c 94bb 64ab a0bb 360e cc3a
00000030: 1d12 703b 7fc9 fe39 20d0 823b eb18 6e3b

net.first.bnorm.running_mean f4 [16]
0.58542806 0.58233625 0.62983674 0.5277609 0.5411651 0.60724396 0.20152374 0.45103776
0.35893235 0.561345 0.6164951 0.6053868 0.34172446 0.2241359 0.59989864 0.2813179
00000000: 9dde 153f fd13 153f fb3c 213f 571b 073f
00000010: cc89 0a3f 5774 1b3f 3d5c 4e3e 6cee e63e
00000020: fbc5 b73e 4eb4 0f3f 9fd2 1d3f a1fa 1a3f
00000030: 82f6 ae3e e283 653e f592 193f e608 903e

net.first.bnorm.running_var f4 [16]
1.1118246 1.8510212 1.5488421 1.7136554 1.5744411 1.3112166 0.22967061 0.8135866
0.4462524 1.6234963 1.8961365 1.2316082 0.9590314 0.14490284 1.5847534 0.58330774
00000000: 4550 8e3f 43ee ec3f 7540 c63f 0f59 db3f
00000010: 4987 c93f f2d5 a73f c62e 6b3e 3647 503f
00000020: 327b e43e bace cf3f 9ab4 f23f 56a5 9d3f
00000030: 1583 753f 6961 143e 33d9 ca3f a853 153f

net.contracts.0.lay.blocks.0.0.weight f4 [32, 16, 3, 3]
-0.043930646 0.08208231 -0.038497064 0.0393498 0.057998918 -0.05899456 0.055041775 -0.0029110715
0.045351185 0.08883522 -0.029558344 -0.029009689 0.07839967 0.02039525 0.0011177673 0.06450354
-0.04385098 -0.0035305251 0.067129 0.040757183 -0.045211695 0.028399114 -0.0597365 -0.034045476
0.06793148 -0.017545274 -0.029869162 -0.005721616 0.012021817 -0.057902 -0.068082795 -0.088416316
0.016582923 -0.065355375 -0.0034854235 -0.017233854 -0.0638829 -0.033281516 -0.06878594 -0.053551193
-0.009433118 -0.069974214 -0.0828654 0.055451028 0.013755474 -0.026189249 0.005874302 0.07095547
-0.06277708 -0.038871814 -0.056856014 0.007016941 0.0077108927 -0.060615502 0.06620403 -0.056829125
0.08575021 -0.052474305 -0.009903824 0.02579542 -0.039571878 0.07304234 -0.0565765 0.012517851
-0.039332528 0.0369566 0.08699888 0.080622934 0.015098986 -0.02464689 0.10147328 0.030184852
0.05058557 -0.049015105 -0.045443024 -0.07547502 0.070925124 0.0076145777 -0.05677967 0.011021467
-0.03181253 0.011325602 0.03440412 -0.033621956 0.024865052 -0.043419734 0.02559588 -0.078803115
0.01285658 0.0862465 0.06882736 0.024578154 0.056339275 0.07280038 0.017233586 0.02260391
-0.0013358961 0.07776484 0.07699319 -0.028296253 0.0044693258 -0.033183936 0.04238489 -0.07504028
0.040453672 -0.009287608 0.032532148 0.03812173 -0.03350896 0.049871404 0.04275279 -0.07208377
0.08068707 0.07389951 0.06062908 -0.008142499 0.039827842 -0.050375804 -0.035160568 0.033827443
0.040796436 0.03599115 -0.07628258 0.06392928 -0.03985301 0.07106285 0.05835477 0.022915162
0.075739644 0.03581283 0.03880043 -0.038541734 0.063387476 0.012220468 0.04756293 -0.009653091
0.06775262 0.080559015 -0.059762888 0.07239727 -0.046037424 -0.053725183 -0.06959987 0.027292911
-0.066330135 -0.03443501 -0.044509336 0.019513642 -0.073713385 -0.031675387 0.007874047 0.014198402
-0.031303823 0.026358014 -0.061553 -0.07505609 -0.01859566 -0.052337762 0.046986785 -0.05041077
-0.002671616 0.040499028 -0.076355666 0.060363308 -0.04153715 -0.017901177 -0.046631087 -0.026478652
-0.026689064 -0.06920524 0.03362122 0.0044040447 0.08780464 0.06455381 0.07366403 0.023766456
0.03921642 0.07140172 0.062712565 -0.06938243 -0.013231968 -0.076947495 0.011261656 -0.025685044
0.06662274 0.01105569 -0.0066013644 -0.067433126 -0.070746966 0.010102338 -0.045169942 -0.041713074
0.063628554 -0.038577452 -0.03143655 0.069943205 0.038183417 -0.041542914 0.020873874 0.037268203
-0.07718363 0.0097102355 0.013152886 -0.007976819 0.08393294 -0.05667428 0.045386694 -0.053139996
-0.080507025 0.05828445 -0.03755132 0.007791097 0.048398547 -0.06500445 -0.06612476 0.03350915
0.07875783 -0.003320438 0.063916825 0.03468666 0.027917428 -0.04866985 0.07060914 0.029161328
0.0023518426 0.05432078 -0.0762284 0.014156069 -0.045285676 -0.013606368 0.023334121 0.04330886
0.025621627 -0.057514098 -0.04677715 0.00048653028 -0.01670595 -0.07525017 0.07638152 0.0056462
-0.065250576 0.030828644 0.031029994 -0.045480587 0.035980485 -0.05582546 0.023777535 0.07763195
0.056257308 0.04672131 -0.012666116 0.020940369 0.02629657 0.017601814 -0.018082961 0.015145382
00000000: 9ff0 33bd c51a a83d 19af 1dbd 422d 213d
00000010: 4690 6d3d 48a4 71bd 7c73 613d adc7 3ebb
00000020: 2ac2 393d 3def b53d 5724 f2bc baa5 edbc
00000030: 0290 a03d f013 a73c 0c82 923a 6f1a 843d
00000040: 169d 33bd 6260 67bb ee7a 893d 01f1 263d
00000050: e62f 39bd 42a5 e83c 43ae 74bd 4573 0bbd
00000060: a91f 8b3d 1bbb 8fbc 2cb0 f4bc 657c bbbb
00000070: 28f7 443c a62a 6dbd fe6e 8bbd 9d13 b5bd
00000080: e9d8 873c 0ad9 85bd b46b 64bb 032e 8dbc
00000090: 0ad5 82bd 3352 08bd a5df 8cbd 7f58 5bbd
000000a0: 5d8d 1abc a44e 8fbd 56b5 a9bd 9e20 633d
000000b0: a45e 613c d68a d6bc 377d c03b 1a51 913d
000000c0: 4591 80bd 0d38 1fbd dae1 68bd 5eee e53b
000000d0: a8ab fc3b f647 78bd fa95 873d a8c5 68bd
000000e0: ce9d af3d 4cef 56bd a643 22bc eb50 d33c
000000f0: 1f16 22bd 3997 953d c3bc 67bd ac17 4d3c
00000100: 251b 21bd ce5f 173d 782c b23d a31d a53d
00000110: bd61 773c 46e8 c9bc 39d1 cf3d 3946 f73c
00000120: d132 4f3d 10c4 48bd 7722 3abd a692 9abd
00000130: 3141 913d b583 f93b cd91 68bd 6293 343c
00000140: db4d 02bd 058f 393c 56eb 0c3d 2db7 09bd
00000150: cbb1 cb3c e4d8 31bd 73ae d13c 8763 a1bd
00000160: 68a4 523c 01a2 b03d 5cf5 8c3d 2058 c93c
00000170: 03c4 663d 5e18 953d 732d 8d3c d62b b93c
00000180: 3c19 afba 2c43 9f3d 9bae 9d3d 8bcd e7bc
00000190: 6c73 923b e1eb 07bd c79b 2d3d b8ae 99bd
000001a0: c0b2 253d 0d2b 18bc 6e40 053d 8825 1c3d
000001b0: b140 09bd f545 4c3d 8d1d 2f3d a8a0 93bd
000001c0: 433f a53d a058 973d 3356 783d 1e68 05bc
000001d0: 8522 233d dc56 4ebd 8704 10bd a58e 0a3d
000001e0: 2a1a 273d 756b 133d 0b3a 9cbd 5bed 823d
000001f0: e93c 23bd 6689 913d 6905 6f3d 94b8 bb3c
00000200: 631d 9b3d 79b0 123d 33ed 1e3d f0dd 1dbd
00000210: 4bd1 813d 5c38 483c 59d1 423d 0028 1ebc
00000220: e3c1 8a3d 20fc a43d eec9 74bd 0545 943d
00000230: bd91 3cbd f00e 5cbd 608a 8ebd 6295 df3c
00000240: 18d8 87bd ba0b 0dbd 6c4f 36bd 13db 9f3c
00000250: 0bf7 96bd 0dbe 01bd 2602 013c 6aa0 683c
00000260: 7038 00bd c3ec d73c 001f 7cbd 02b7 99bd
00000270: ed55 98bc 1f60 56bd 3775 403d 867b 4ebd
00000280: 4716 2fbb 4fe2 253d 5c60 9cbd 843f 773d
00000290: dc22 2abd 7da5 92bc 3d00 3fbd c2e9 d8bc
000002a0: 06a3 dabc 7abb 8dbd 68b6 093d ce4f 903b
000002b0: ebd2 b33d ca34 843d 2bdd 963d dfb1 c23c
000002c0: 66a1 203d 113b 923d 726f 803d 6018 8ebd
000002d0: e5ca 58bc a696 9dbd cf82 383c 7169 d2bc
000002e0: 8171 883d ed22 353c 4250 d8bb 611a 8abd
000002f0: c9e3 90bd 4784 253c 1e04 39bd 54db 2abd
00000300: b04f 823d 6403 1ebd 9dc3 00bd 623e 8f3d
00000310: 3766 1c3d e728 2abd b0ff aa3c 8ba6 183d
00000320: 7312 9ebd ae17 1f3c 347f 573c 34b1 02bc
00000330: 09e5 ab3d 4a23 68bd 66e7 393d 53a9 59bd
00000340: dee0 a4bd adbb 6e3d 6acf 19bd 754c ff3b
00000350: 8e3d 463d 0e21 85bd 6b6c 87bd e440 093d
00000360: c94b a13d b59b 59bb d3e6 823d 9913 0e3d
00000370: 17b3 e43c 095a 47bd 869b 903d bde3 ee3c
00000380: 5f21 1a3b 777f 5e3d a31d 9cbd dbee 673c
00000390: 797d 39bd 3eed 5ebc 3327 bf3c a264 313d
000003a0: 72e4 d13c e793 6bbd 6699 3fbd fd14 ff39
000003b0: ebda 88bc c31c 9abd ea6d 9c3d c203 b93b
000003c0: 18a2 85bd 5a8c fc3c 9d32 fe3c da49 3abd
000003d0: 4660 133d 3da9 64bd 1bc9 c23c 80fd 9e3d
000003e0: 106e 663d d85e 3f3d 8a85 4fbc 238b ab3c
000003f0: e86b d73c ae31 903c b822 94bc 5624 783c

net.contracts.0.lay.blocks.0.1.weight f4 [32]
1.0046608 0.9953943 0.9991257 1.0065919 0.9954305 0.9995867 0.99124795 1.0082906
1.0004736 1.005326 0.9975536 0.9920944 0.99466825 0.9960752 1.0060393 0.99358076
1.0047003 1.0037533 0.9986238 1.0009681 0.9986774 1.0091323 1.0002792 0.99421984
1.001224 0.99431753 1.0036333 1.009738 0.9992927 1.0083102 0.99507284 0.99443513
00000000: ba98 803f 29d2 7e3f b4c6 7f3f 01d8 803f
00000010: 89d4 7e3f eae4 7f3f 6dc2 7d3f ab0f 813f
00000020: 850f 803f 86ae 803f ac5f 7f3f e6f9 7d3f
00000030: 94a2 7e3f c9fe 7e3f e5c5 803f 4f5b 7e3f
00000040: 059a 803f fd7a 803f cfa5 7f3f b91f 803f
00000050: 52a9 7f3f 3f2b 813f 2609 803f 3185 7e3f
00000060: 1c28 803f 988b 7e3f 0e77 803f 183f 813f
00000070: a5d1 7f3f 4f10 813f 18bd 7e3f 4d93 7e3f

net.contracts.0.lay.blocks.0.1.bias f4 [32]
0.006240166 0.0021860201 0.0036756608 0.002282093 0.0016058738 0.0009621724 -0.008830392 0.0026696578
0.00877005 0.005440234 -0.0043370076 -0.010450766 -0.004642224 -0.008250109 -0.008526471 -0.011996655
0.007128866 -0.0028344179 -0.0055041956 0.0036030435 0.0038034122 0.008113408 0.0042441897 -0.0032867573
0.0012134713 -0.011784478 0.0010598002 0.012238737 0.0026266952 0.00671408 -0.004026224 -0.00048834423
00000000: 4e7a cc3b 5543 0f3b 5be3 703b 2b8f 153b
00000010: 2f7c d23a 4c3a 7c3a 59ad 10bc 6df5 2e3b
00000020: 41b0 0f3c fe43 b23b 751d 8ebb b139 2bbc
00000030: cc1d 98bb 772b 07bc 9db2 0bbc 9e8d 44bc
00000040: 4399 e93b a4c1 39bb 8a5c b4bb 0a21 6c3b
00000050: ab42 793b 1aee 043c d812 8b3b a366 57bb
00000060: 570d 9f3a af13 41bc fee8 8a3a fc84 483c
00000070: a224 2c3b c901 dc3b 6aee 83bb 3a04 00ba

net.contracts.0.lay.blocks.0.1.running_mean f4 [32]
0.07451071 -0.018463211 0.09804912 0.007874952 -0.22709414 -0.06376226 -0.23013936 -0.05885394
-0.13702562 0.27871433 -0.011233069 0.03518403 -0.37313184 0.033133037 0.105494715 0.18998769
0.18734133 0.29724705 0.15524359 -0.106111184 0.33764085 0.052307796 0.105399564 -0.13967377
-0.10938019 -0.08891145 0.1609895 0.17956536 0.07992995 0.026578872 0.0042593027 -0.22535937
00000000: 1299 983d 2940 97bc facd c83d f105 013c
00000010: 5e8b 68be ca95 82bd a7a9 6bbe d410 71bd
00000020: 7250 0cbe a5b3 8e3e e80a 38bc 211d 103d
00000030: 230b bfbe 82b6 073d 9d0d d83d 228c 423e
00000040: 68d6 3f3e c430 983e 2df8 1e3e d250 d9bd
00000050: 43df ac3e b340 563d badb d73d a406 0fbe
00000060: b902 e0bd 3517 b6bd 6eda 243e fbdf 373e
00000070: 50b2 a33d efbb d93c 9f91 8b3b 9bc4 66be

net.contracts.0.lay.blocks.0.1.running_var f4 [32]
0.4437559 0.93758875 1.3982302 0.46624258 0.26970795 0.39549336 1.6929549 0.76932704
0.96028155 0.5873066 0.32986662 0.81249905 0.5311641 0.44454613 0.543576 0.8307863
0.5296211 0.19136298 0.33145106 0.14226015 0.47819594 1.0100236 0.72822386 1.9887758
1.1323794 0.2074264 0.19760817 0.44713137 0.6773141 1.2374929 0.54561496 0.72557515
00000000: f933 e33e d105 703f 35f9 b23f 59b7 ee3e
00000010: 2917 8a3e 1b7e ca3e bfb2 d83f 9ef2 443f
00000020: 03d5 753f ba59 163f 47e4 a83e f0ff 4f3f
00000030: 5ffa 073f 8d9b e33e cc27 0b3f 69ae 543f
00000040: 4095 073f a8f4 433e f4b3 a93e a5ac 113e
00000050: 19d6 f43e 7448 813f e16c 3a3f 3590 fe3f
00000060: cff1 903f 9667 543e cc59 4a3e 67ee e43e
00000070: 7564 2d3f 2b66 9e3f 6cad 0b3f 4bbf 393f

net.contracts.0.lay.blocks.1.0.weight f4 [32, 32, 3, 3]
-0.001964705 0.02242856 -0.023586933 0.022463854 0.024482746 -0.012750505 0.032825217 -0.056899566
-0.03630146 -0.01028207 -0.011416949 0.0153467525 0.036801938 -0.048156142 0.02513993 0.008175858
0.042953026 0.025392152 -0.0069237966 -0.0024823702 -0.03300963 0.01918941 0.052151795 0.026603296
0.052608337 0.02676088 0.016207902 -0.005211135 -0.043869104 -0.0028002057 0.05546246 0.05673764
-0.012593655 0.04442415 0.04418319 -0.053572387 -0.05219779 -0.022726258 0.0006165894 0.028693354
0.03093842 0.043735087 -0.023354858 0.045373898 0.019342868 -0.03581208 -0.03752263 0.026987262
0.060443725 -0.03301616 0.013118112 -0.058744155 0.037063938 0.016142655 -0.02059466 0.025222912
0.018861596 0.034072 -1.5034775e-05 -0.0047337622 0.02250934 0.013919842 -0.055388186 -0.017431509
0.03670092 -0.02687465 0.04150719 -0.014869764 0.053023964 -0.031672552 0.046266586 -0.022236126
0.04961734 0.040887862 0.03178127 0.02413305 0.042373635 -0.016525118 -0.01267591 0.022748625
-0.03538016 0.010941107 0.03168461 -0.045575067 0.0042593726 0.010433377 -0.037659492 0.053910986
0.010013101 -0.047574073 -0.026136756 0.005163094 0.036653988 -0.024706172 0.04624159 -0.030548297
-0.052450903 -0.020778423 -0.04374977 0.020412963 0.039194882 -0.049867436 -0.04922561 0.02671324
-0.018589038 0.0541913 0.051666126 -0.04037942 0.02991011 -0.061661348 0.018383654 -0.03868838
-0.005523431 0.051815704 0.002679157 -0.037038032 0.021682361 -0.015763352 0.047517054 -0.05012997
-0.016108967 -0.05456785 -0.039418902 -0.023667952 -0.04489091 -0.04658437 -0.0079799285 -0.02651565
-0.028243471 0.009677547 -0.037331246 0.041352965 0.04634329 0.062137015 0.02674816 0.000792022
-0.0036305361 -0.021169057 0.04632676 0.0393797 0.049646247 -0.011243254 -0.040716097 0.019868694
0.054222815 -0.0067346185 0.0496407 0.04401633 0.02332365 -0.0146906115 -0.01361179 -0.005126231
0.0009597369 -0.007809214 -0.05403 -0.037043367 -0.015349636 0.04848563 0.026615523 -0.04905911
-0.037604373 -0.031068768 0.049399473 0.007865718 0.04027994 -0.05426058 0.048289448 0.041044187
-0.0028426896 -0.034393754 0.016178206 -0.027529158 -0.018221034 0.020311283 -0.041898597 0.018514553
-0.0046397713 -0.0054850755 -0.0027475348 0.008236889 -0.03060894 0.026730802 -0.060406566 0.024811441
-0.050297666 0.04810088 0.021774592 0.022243224 0.014281541 0.014284259 -0.0180697 -0.052484285
0.03585834 0.038944457 -0.0066174427 -0.0016975616 -0.0051953653 -0.010562105 0.044615276 -0.030906608
-0.053031866 -0.012030756 -0.038184475 -0.043710317 -0.019741932 -0.0058682556 0.034583632 0.025686057
0.040961888 0.03699125 0.01052393 -0.0071237534 -0.008933523 -0.051168274 -0.00045145128 -0.01987511
-0.02484133 0.04148893 0.019429354 0.02936449 0.0313869 -0.041089408 0.010170647 -0.01347135
0.014197968 0.04226726 -0.00700104 0.05211778 0.009540853 -0.0037308154 0.04624906 0.053335205
-0.008105036 0.04305405 -0.019930832 -0.009227948 -0.048994575 -0.03229483 0.00039728783 -0.020806804
-0.011910079 0.007541056 -0.030098371 0.03583508 0.06376406 0.052797128 0.05637685 -0.01054911
0.0075103426 -0.014800051 -0.022531169 -0.0070242663 0.041449774 -0.049796857 -0.024692137 0.036496703
00000000: 48c2 00bb 19bc b73c 6239 c1bc 1e06 b83c
00000010: 0a90 c83c 7ee7 50bc bc73 063d 850f 69bd
00000020: d7b0 14bd 2176 28bc 280e 3bbc f270 7b3c
00000030: a1bd 163d 603f 45bd 41f2 cd3c 09f4 053c
00000040: 83ef 2f3d 3403 d03c 04e1 e2bb 43af 22bb
00000050: 1b35 07bd 1c33 9d3c 1f9d 553d 28ef d93c
00000060: d77b 573d a239 db3c 6fc6 843c 2bc2 aabb
00000070: 17b0 33bd a883 37bb 9b2c 633d ba65 683d
00000080: 9e55 4ebc 19f6 353d 6ff9 343d b86e 5bbd
00000090: 5acd 55bd 6b2c babc 9da2 213a 530e eb3c
000000a0: 9272 fd3c 9023 333d b052 bfbc fbd9 393d
000000b0: ef74 9e3c b0af 12bd 54b1 19bd 6414 dd3c
000000c0: d793 773d f43b 07bd 5aed 563c b69d 70bd
000000d0: 5bd0 173d 9a3d 843c 22b6 a8bc 48a0 ce3c
000000e0: a283 9a3c 158f 0b3d de3d 7cb7 ad1d 9bbb
000000f0: 8265 b83c 0d10 643c b9de 62bd 86cc 8ebc
00000100: b453 163d 3a28 dcbc 7103 2a3d 50a0 73bc
00000110: a82f 593d 14bb 01bd 0882 3d3d 8928 b6bc
00000120: 8d3b 4b3d 087a 273d 142d 023d adb2 c53c
00000130: fa8f 2d3d af5f 87bc 9fae 4fbc 535b ba3c
00000140: c9ea 10bd 5442 333c b9c7 013d ecac 3abd
00000150: 3592 8b3b c1f0 2a3c d740 1abd c4d1 5c3d
00000160: fd0d 243c 08dd 42bd c01c d6bc 2c2f a93b
00000170: 7e22 163d 9964 cabc d267 3d3d 6c40 fabc
00000180: c2d6 56bd 8337 aabc f532 33bd 1639 a73c
00000190: d08a 203d cc41 4cbd cba0 49bd bad5 da3c
000001a0: 0a48 98bc b2f7 5d3d dc9f 533d e464 25bd
000001b0: 0c06 f53c 9c90 7cbd 5199 963c b577 1ebd
000001c0: e6fd b4bb b43c 543d cc94 2f3b 31b5 17bd
000001d0: 359f b13c 2522 81bc 3ea1 423d 1555 4dbd
000001e0: f4f6 83bc 8a82 5fbd b775 21bd 4be3 c1bc
000001f0: 88df 37bd 41cf 3ebd 3fbe 02bc 5937 d9bc
00000200: da5e e7bc 938e 1e3c a6e8 18bd ba61 293d
00000210: 76d2 3d3d 6283 7e3d f51e db3c b29f 4f3a
00000220: 4aee 6dbb bb6a adbc 21c1 3d3d 9c4c 213d
00000230: dd59 4b3d a035 38bc ecc5 26bd acc3 a23c
00000240: be18 5e3d 13ae dcbb 0c54 4b3d 784a 343d
00000250: 3d11 bf3c e4b0 70bc fc03 5fbc f1f9 a7bb
00000260: da96 7b3a 6fe4 ffbb 904e 5dbd c9ba 17bd
00000270: 0a7d 7bbc de98 463d cc08 da3c 35f2 48bd
00000280: 0b07 1abd ee83 febc 1a57 4a3d 36df 003c
00000290: 94fc 243d 5840 5ebd 28cb 453d f31d 283d
000002a0: 6b4c 3abb 77e0 0cbd 2888 843c d484 e1bc
000002b0: 4744 95bc d963 a63c dd9d 2bbd d5ab 973c
000002c0: 3909 98bb 26bc b3bb fc0f 34bb 04f4 063c
000002d0: 9abf fabc 8efa da3c e06c 77bd 5d41 cb3c
000002e0: ed04 4ebd 6e05 453d a160 b23c 6c37 b63c
000002f0: 20fd 693c 8608 6a3c e806 94bc c3f9 56bd
00000300: 32e0 123d 3984 1f3d 22d7 d8bb b780 deba
00000310: e23d aabb ae0c 2dbc 82be 363d db2f fdbc
00000320: f137 59bd a61c 45bc 5367 1cbd 9709 33bd
00000330: d5b9 a1bc 7f4a c0bb 91a7 0d3d 916b d23c
00000340: a7c7 273d 2384 173d 906c 2c3c 606e e9bb
00000350: e95d 12bc d395 51bd c4b0 ecb9 20d1 a2bc
00000360: 0b80 cbbc 4cf0 293d 4f2a 9f3c cd8d f03c
00000370: 8d8f 003d 5e4d 28bd c9a2 263c f0b6 5cbc
00000380: 989e 683c 6f20 2d3d fb68 e5bb 7479 553d
00000390: 3d51 1c3c b280 74bb a86f 3d3d 0476 5a3d
000003a0: fcca 04bc 7259 303d fc45 a3bc d230 17bc
000003b0: 89ae 48bd 9547 04bd 124b d039 0873 aabc
000003c0: 7e22 43bc f61a f73b dc90 f6bc cec7 123d
000003d0: bb96 823d cd41 583d 69eb 663d 2dd6 2cbc
000003e0: 5219 f63b ea7b 72bc 4993 b8bc d12b e6bb
000003f0: 3dc7 293d caf7 4bbd 2a47 cabc 917d 153d

net.contracts.0.lay.blocks.1.1.weight f4 [32]
0.9992467 0.99526674 0.99185 0.994724 0.9949685 1.0048268 1.0014132 0.99750704
1.0014592 0.99534345 1.0056331 0.9990706 0.9968541 1.0072654 1.0061914 1.00568
0.9971896 1.0117652 1.0045475 1.0097406 0.9967273 0.9953319 0.99973714 0.9977754
1.0006126 0.99116474 1.0016631 1.0063313 1.0056596 0.9945036 0.99638224 0.9995772
00000000: a2ce 7f3f cdc9 7e3f e2e9 7d3f 3ba6 7e3f
00000010: 41b6 7e3f 2a9e 803f 4f2e 803f 9f5c 7f3f
00000020: d12f 803f d4ce 7e3f 96b8 803f 17c3 7f3f
00000030: d531 7f3f 13ee 803f e1ca 803f 1fba 803f
00000040: d147 7f3f 8681 813f 0395 803f 2e3f 813f
00000050: 8529 7f3f 12ce 7e3f c6ee 7f3f 356e 7f3f
00000060: 1314 803f f9bc 7d3f 7f36 803f 77cf 803f
00000070: 74b9 803f ca97 7e3f e812 7f3f 4be4 7f3f

net.contracts.0.lay.blocks.1.1.bias f4 [32]
-0.0038126095 -0.0080417115 0.0014044938 0.01591396 0.004758712 0.0064858273 0.00117383 0.0019165383
0.0035916355 -0.0031418842 -0.004262662 -0.0001812015 -0.011234821 0.0018214039 0.006920609 -0.006633006
0.009161641 -0.009256359 -0.016372984 0.0060707573 0.004048389 0.0101596285 -0.0063373833 -0.0018162094
-0.002025782 0.00033751418 -0.00280791 0.0082202 0.00872927 0.0019962504 0.005359662 -0.0033332135
00000000: f9dc 79bb 62c1 03bc fe16 b83a fe5d 823c
00000010: f8ee 9b3b 1087 d43b 33db 993a 5b34 fb3a
00000020: a561 6b3b 12e8 4dbb cdad 8bbb e800 3eb9
00000030: 4112 38bc 2cbc ee3a 47c6 e23b b059 d9bb
00000040: b51a 163c fca7 17bc a320 86bc 34ed c63b
00000050: 59a8 843b 9274 263c d3a9 cfbb e00d eeba
00000060: fbc2 04bb 63f4 b039 ea04 38bb 05ae 063c
00000070: 3605 0f3c 86d3 023b 1ba0 af3b 0b72 5abb

net.contracts.0.lay.blocks.1.1.running_mean f4 [32]
0.25956675 -0.19988938 -0.34135544 0.15769924 -0.0021411607 -0.12249319 0.48299122 0.06754792
0.129682 0.037778914 -0.23790635 -0.011400538 0.030848725 -0.18341951 -0.06217369 0.073014274
0.0009551897 -0.05837264 0.16488478 0.08523835 -0.12946934 -0.12267379 0.11462088 0.21076441
0.15126486 -0.055832915 0.020208364 -0.22368202 0.15528777 -0.34913388 0.38189304 -0.0010153392
00000000: efe5 843e cdaf 4cbe 24c6 aebe e97b 213e
00000010: b752 0cbb b6dd fabd a04a f73e 9056 8a3d
00000020: 5ccb 043e 10be 1a3d b99d 73be 52c9 3abc
00000030: 77b6 fc3c 53d2 3bbe d7a9 7ebd 8288 953d
00000040: b265 7a3a 2618 6fbd 8ed7 283e 7291 ae3d
00000050: 9c93 04be 653c fbbd 5abe ea3d a0d2 573e
00000060: 2de5 1a3e 0eb1 64bd 038c a53c e60c 65be
00000070: c203 1f3e adc1 b2be 7c87 c33e 2115 85ba

net.contracts.0.lay.blocks.1.1.running_var f4 [32]
0.6271644 0.5518623 0.4981536 0.5300426 0.51261955 0.16513884 0.39007306 0.10109467
0.31740072 0.28049517 0.15024826 0.14659694 0.41394547 0.20575012 0.17636432 0.6480428
0.2645266 0.4224441 0.20239717 0.46332043 0.3003491 0.97850245 0.27805093 0.15929121
0.09096147 0.14047296 0.27404258 0.46580085 0.32523453 0.30273587 0.67016953 0.23325682
00000000: d98d 203f d946 0d3f fd0d ff3e dfb0 073f
00000010: 093b 033f 281a 293e a8b7 c73e b90a cf3d
00000020: 5982 a23e 109d 8f3e aeda 193e 821d 163e
00000030: a9f0 d33e 29b0 523e d998 343e 22e6 253f
00000040: 0870 873e 984a d83e 3441 4f3e 5638 ed3e
00000050: 5bc7 993e 237f 7a3f b15c 8e3e 3c1d 233e
00000060: 024a ba3d 25d8 0f3e 4f4f 8c3e 737d ee3e
00000070: 2485 a63e 3200 9b3e 3b90 2b3f e0da 6e3e

net.contracts.0.lay.shortcut.0.weight f4 [32, 16, 1, 1]
0.045198873 -0.20570293 -0.17456834 0.19563842 -0.23150896 0.11477717 -0.13905533 0.22043487
0.18163213 -0.049151458 -0.03851585 -0.16589466 0.2419329 -0.15498893 0.0830124 0.18454225
-0.24841188 -0.23888041 -0.18157123 -0.028935865 0.16365342 -0.082079455 -0.096090004 0.15969472
0.19431593 0.1362899 0.224591 -0.23328005 -0.2227156 0.04409769 -0.2016696 -0.0707972
0.14436539 0.23427396 -0.059526745 -0.2136625 -0.116560675 0.23198381 -0.052748844 -0.23744997
-0.12549567 -0.16381162 -0.057956796 -0.19134548 -0.0953322 0.23718904 -0.11109679 -0.06315108
0.14871721 -0.22506595 -0.12176321 -0.030585377 0.19422866 0.044221114 -0.00056558696 -0.08863345
0.12143014 -0.097677104 -0.050209407 -0.09795322 0.10432649 0.2460917 -0.1988356 -0.007441183
-0.021511823 -0.1254338 -0.1745084 -0.11259313 -0.19145595 0.19373056 -0.18181604 0.13494472
0.2089543 -0.053783208 0.22811924 0.18231867 -0.1730819 0.14966169 0.058618773 0.1984888
-0.19240054 0.20304401 0.034505483 0.11159144 -0.14898323 0.1602879 -0.008699046 0.19594537
0.011398583 0.16018048 -0.16682734 -0.22259174 0.08522831 0.13084425 0.0596219 0.08196779
0.15785104 -0.1333632 0.12826099 0.13434003 -0.09987164 -0.1543065 -0.25011048 0.19598202
-0.0031007892 0.053459458 -0.16671555 -0.19435258 0.1979891 0.17764686 0.14438763 0.19529472
0.2083861 0.15772595 0.18706758 -0.032990802 0.06428253 -0.20579165 -0.09257623 -0.018021604
-0.010562601 0.25577435 0.2025997 0.08278443 0.24276173 -0.121861376 0.045736503 -0.17661506
-0.21859714 0.13849154 0.08684152 -0.0074102883 -0.15349834 0.17829543 -0.012562529 0.16514112
-0.17322145 0.1983973 -0.0061416985 -0.07407227 -0.014178565 -0.19793017 -0.04064373 0.018663011
-0.1938882 0.13688706 0.23037471 0.13516062 -0.12640578 -0.16202387 -0.19036289 -0.15523201
0.14519235 0.11625029 -0.08851262 -0.0039217947 -0.04304467 -0.00025179327 -0.24431427 0.21845642
-0.0969403 -0.22334485 -0.013412401 0.081984974 0.11848317 -0.13472874 -0.024745118 -0.19158699
-0.18232763 -0.1726803 -0.14953798 0.14706953 -0.23337336 -0.050446063 -0.0943436 0.15681769
0.003022958 -0.1282512 0.21145912 -0.1963703 -0.09410542 -0.22018398 -0.010224348 0.06393438
0.21126759 -0.17373082 -0.16744718 0.25860795 0.051394388 -0.1730644 0.10428355 0.25018886
-0.00510663 -0.11232791 -0.13963768 -0.08025962 0.13542534 -0.19259857 0.23051052 -0.16137084
0.059491616 0.24493535 -0.104437046 -0.17071326 -0.13460882 -0.09975971 -0.1422995 -0.24563128
-0.1259062 -0.08730517 0.21997371 -0.05079508 0.024317758 -0.07633598 0.037724767 0.12124564
0.043310136 -0.030171443 0.013665951 0.23816645 -0.16338563 0.24175031 -0.062056947 0.18304533
0.18474697 0.008738232 0.0046390095 0.17839521 -0.03055083 0.06677888 0.24326697 -0.058889788
-0.08027293 0.19303836 0.23302528 0.23333232 -0.23492612 0.15844236 0.12973706 -0.15701562
0.17182648 -0.124867074 0.13950841 0.011200454 0.07410915 -0.1453194 -0.054914095 -0.1295874
0.14151916 -0.20170622 0.0074278754 0.1054331 -0.0021351087 -0.0681059 0.04718466 0.02798557
00000000: 7422 393d caa3 52be 0bc2 32be 7055 483e
00000010: af10 6dbe 4b10 eb3d 8564 0ebe aeb9 613e
00000020: c6fd 393e 0a53 49bd ccc2 1dbd 4ae0 29be
00000030: 42bd 773e 6bb5 1ebe 6802 aa3d a5f8 3c3e
00000040: af5f 7ebe 119d 74be cfed 39be e80a edbc
00000050: c394 273e 4619 a8bd d6ca c4bd 0387 233e
00000060: c1fa 463e 948f 0b3e 2ffb 653e f7e0 6ebe
00000070: 8f0f 64be c89f 343d 7a82 4ebe 1ffe 90bd
00000080: 85d4 133e 83e5 6f3e 51d2 73bd 58ca 5abe
00000090: 5db7 eebd 2a8d 6d3e 2c0f 58bd 1626 73be
000000a0: f081 00be 3cbe 27be 1b64 6dbd 12f0 43be
000000b0: 873d c3bd afe1 723e b786 e3bd 5a55 81bd
000000c0: 5349 183e b077 66be fd5e f9bd 2f8e fabc
000000d0: e1e3 463e 3321 353d e643 14ba 7485 b5bd
000000e0: 5eb0 f83d ef0a c8bd 61a8 4dbd b39b c8bd
000000f0: 20a9 d53d 76ff 7b3e 8f9b 4bbe 2bd5 f3bb
00000100: 9039 b0bc b871 00be 54b2 32be 3a97 e6bd
00000110: 070d 44be 4e61 463e fc2d 3abe f32e 0a3e
00000120: 1ef8 553e c84b 5cbd 1798 693e bfb1 3a3e
00000130: 623c 31be ea40 193e 3d1a 703d a640 4b3e
00000140: a604 45be c5ea 4f3e 9f55 0d3d 0e8a e43d
00000150: 0f8f 18be 8322 243e 7286 0ebc e7a5 483e
00000160: 1fc1 3a3c 5a06 243e c9d4 2abe 17ef 63be
00000170: 2e8c ae3d 09fc 053e 1836 743d bbde a73d
00000180: b4a3 213e 5d90 08be d956 033e 6f90 093e
00000190: 8189 ccbd 8602 1ebe 7b0e 80be 83af 483e
000001a0: 9c36 4bbb 4ef8 5a3d 7bb7 2abe 5d04 47be
000001b0: a8bd 4a3e 0fe9 353e 5ada 133e 57fb 473e
000001c0: 2a63 553e e982 213e a58e 3f3e 5d21 07bd
000001d0: 8fa6 833d 0cbb 52be 9b98 bdbd 0ba2 93bc
000001e0: c20e 2dbc dbf4 823e 4c76 4f3e e28a a93d
000001f0: 8896 783e 7592 f9bd 3356 3b3d 94da 34be
00000200: eed7 5fbe bad0 0d3e f8d9 b13d 01d2 f2bb
00000210: ab2e 1dbe 1493 363e 11d3 4dbc c11a 293e
00000220: f760 31be a928 4b3e 4d40 c9bb 34b3 97bd
00000230: 364d 68bc 35ae 4abe 0a7a 26bd 2ce3 983c
00000240: a18a 46be 1f2c 0c3e 59e7 6b3e 8c67 0a3e
00000250: 8470 01be 96e9 25be 7dee 42be 24f5 1ebe
00000260: 4ead 143e a214 ee3d 1b46 b5bd 6682 80bb
00000270: 9c4f 30bd 1f03 84b9 852d 7abe 0ab3 5f3e
00000280: a388 c6bd 83b4 64be b0bf 5bbc bde7 a73d
00000290: 4ea7 f23d 55f6 09be 46b6 cabc 612f 44be
000002a0: 18b4 3abe 1bd3 30be 7c20 19be 6599 163e
000002b0: 6df9 6ebe 88a0 4ebd 3837 c1bd d194 203e
000002c0: d21c 463b 4854 03be bd88 583e 4c15 49be
000002d0: 58ba c0bd e977 61be 0684 27bc 07f0 823d
000002e0: 8856 583e 7ee6 31be 4677 2bbe 4368 843e
000002f0: ec82 523d cb37 31be 9d92 d53d c118 803e
00000300: 8455 a7bb 2d0c e6bd 2efd 0ebe 285f a4bd
00000310: f1ac 0a3e 8f38 45be f30a 6c3e 663e 25be
00000320: 7bad 733d 55d0 7a3e 17e3 d5bd 75cf 2ebe
00000330: e5d6 09be d24e ccbd f6b6 11be c486 7bbe
00000340: 8eed 00be 0ecd b2bd ca40 613e 800e 50bd
00000350: 0936 c73c 0a56 9cbd 4985 1a3d a24f f83d
00000360: f865 313d 1a2a f7bc 27e7 5f3c e8e1 733e
00000370: 904e 27be 658d 773e 6d2f 7ebd 3c70 3b3e
00000380: 4f2e 3d3e cd2a 0f3c d502 983b 3cad 363e
00000390: bc45 fabc 5ec3 883d fa1a 793e 6b36 71bd
000003a0: 2266 a4bd d9ab 453e 2e9e 6e3e abee 6e3e
000003b0: 7990 70be b73e 223e cbd9 043e b4c8 20be
000003c0: 48f3 2f3e 4fba ffbd 4bdb 0e3e 1c82 373c
000003d0: 8ac6 973d 9cce 14be 9aed 60bd 8fb2 04be
000003e0: 66ea 103e 138c 4ebe 8965 f33b 4fed d73d
000003f0: 2eed 0bbb 1b7b 8bbd b444 413d fe41 e53c

net.contracts.0.lay.shortcut.1.weight f4 [32]
1.0007725 1.0047476 1.0081551 1.0052698 1.005043 0.9951712 0.99861413 1.0025162
0.99854916 1.004667 0.9943802 1.0009521 1.0030984 0.9927564 0.99381155 0.99434745
1.0028135 0.98817146 0.9954426 0.9902226 1.0032818 1.0046666 1.0002662 1.0022457
0.9994054 1.00885 0.99835044 0.99364823 0.99433416 1.005504 1.0036358 1.0004386
00000000: 5019 803f 929b 803f 3a0b 813f aeac 803f
00000010: 40a5 803f 8ac3 7e3f 2da5 7f3f 7352 803f
00000020: eba0 7f3f ee98 803f b38f 7e3f 331f 803f
00000030: 8765 803f 4925 7e3f 6f6a 7e3f 8e8d 7e3f
00000040: 315c 803f cef8 7c3f 54d5 7e3f 3a7f 7d3f
00000050: 8a6b 803f ea98 803f b908 803f 9649 803f
00000060: 08d9 7f3f ff21 813f e593 7f3f bb5f 7e3f
00000070: af8c 7e3f 5bb4 803f 2377 803f 5f0e 803f

net.contracts.0.lay.shortcut.1.bias f4 [32]
-0.0038126095 -0.0080417115 0.0014044938 0.01591396 0.004758712 0.0064858273 0.00117383 0.0019165383
0.0035916355 -0.0031418842 -0.004262662 -0.0001812015 -0.011234821 0.0018214039 0.006920609 -0.006633006
0.009161641 -0.009256359 -0.016372984 0.0060707573 0.004048389 0.0101596285 -0.0063373833 -0.0018162094
-0.002025782 0.00033751418 -0.00280791 0.0082202 0.00872927 0.0019962504 0.005359662 -0.0033332135
00000000: f9dc 79bb 62c1 03bc fe16 b83a fe5d 823c
00000010: f8ee 9b3b 1087 d43b 33db 993a 5b34 fb3a
00000020: a561 6b3b 12e8 4dbb cdad 8bbb e800 3eb9
00000030: 4112 38bc 2cbc ee3a 47c6 e23b b059 d9bb
00000040: b51a 163c fca7 17bc a320 86bc 34ed c63b
00000050: 59a8 843b 9274 263c d3a9 cfbb e00d eeba
00000060: fbc2 04bb 63f4 b039 ea04 38bb 05ae 063c
00000070: 3605 0f3c 86d3 023b 1ba0 af3b 0b72 5abb

net.contracts.0.lay.shortcut.1.running_mean f4 [32]
0.046718996 -0.0076094847 -0.15202367 0.08992846 0.1367178 0.11081606 0.094258584 0.07997992
-0.10826491 -0.016529407 -0.21281879 0.017371785 -0.15604387 0.1702932 0.18589997 0.021777997
-0.2482312 0.057641044 -0.072231196 -0.2089146 0.0085075 0.27196655 -0.031131417 0.012668533
0.026118262 -0.020789277 -0.2970465 0.13230485 -0.0916976 0.008206269 0.06052724 0.099753715
00000000: 6b5c 3f3d fc58 f9bb 18ac 1bbe 6a2c b83d
00000010: c0ff 0b3e 88f3 e23d a50a c13d 83cc a33d
00000020: feb9 ddbd ae68 87bc 2bed 59be 464f 8e3c
00000030: f7c9 1fbe 5761 2e3e 905c 3e3e c567 b23c
00000040: 5230 7ebe 0419 6c3d f3ed 93bd b5ed 55be
00000050: 0b63 0b3c 333f 8b3e 5007 ffbc ae8f 4f3c
00000060: f7f5 d53c 464e aabc 7b16 98be ec7a 073e
00000070: f4cb bbbd 9673 063c 69eb 773d ad4b cc3d

net.contracts.0.lay.shortcut.1.running_var f4 [32]
0.15457977 1.8466665 0.53758025 0.3452985 0.27470297 0.269558 0.07895208 0.4005622
0.7128738 0.14942643 0.38789687 0.30739194 0.32014766 0.10674376 0.12091222 0.1577775
0.4261302 0.12638856 1.6926795 0.23511137 0.11465947 0.48696768 0.078649975 0.7501811
0.5876194 0.25018725 0.5202069 0.13687992 0.2437325 0.7804889 0.5598189 0.15731859
00000000: 294a 1e3e 915f ec3f dc9e 093f f7ca b03e
00000010: dea5 8c3e 8203 8a3e a1b1 a13d 7d16 cd3e
00000020: e67e 363f 3e03 193e 6b9a c63e 7a62 9d3e
00000030: 65ea a33e 799c da3d d3a0 f73d 6d90 213e
00000040: bd2d da3e 016c 013e b9a9 d83f 09c1 703e
00000050: 96d2 ea3d d453 f93e 3d13 a13d de0b 403f
00000060: 3a6e 163f 8b18 803e 482c 053f 402a 0c3e
00000070: 0395 793e 1fce 473f 4b50 0f3f 2018 213e

net.contracts.0.lay.bnorm.weight f4 [32]
1.0029808 0.9946723 1.0032507 0.99308234 0.9983396 1.0067878 0.99054486 1.0083894
0.99466956 0.9952221 1.0049261 0.99465156 1.004402 1.0088888 0.9945033 1.0067353
0.99322736 1.0050088 0.9949054 1.003752 0.9936672 1.0047195 0.9922229 0.993922
1.0042763 0.9999896 0.99115425 0.9962099 1.0008773 1.0054612 0.9950466 1.0069396
00000000: ad61 803f d8a2 7e3f 856a 803f a53a 7e3f
00000010: 2f93 7f3f 6cde 803f 5994 7d3f e712 813f
00000020: aaa2 7e3f e0c6 7e3f 6ba1 803f 7ca1 7e3f
00000030: 3f90 803f 4523 813f c597 7e3f b4dc 803f
00000040: 2644 7e3f 21a4 803f 1fb2 7e3f f27a 803f
00000050: f960 7e3f a69a 803f 5202 7e3f ac71 7e3f
00000060: 208c 803f 52ff 7f3f 49bc 7d3f 9d07 7f3f
00000070: bf1c 803f f4b2 803f 60bb 7e3f 66e3 803f

net.contracts.0.lay.bnorm.bias f4 [32]
8.368458e-05 -0.0019296077 -0.0042814347 -0.0017801025 0.0015517845 0.0023688693 -0.008270903 -0.0070206015
-0.00036549452 0.007500809 -0.0018983259 0.000326799 -0.0026949435 -0.002293411 0.0002351069 -0.0012763944
0.008416628 -0.012418025 0.008509119 0.011043401 0.0022030799 0.00041867743 0.009915318 -0.002622544
0.0026115912 -0.008533398 0.0036126594 -0.0061660493 0.0065611494 -0.0016823264 -0.001334058 0.002066241
00000000: d17f af38 e4ea fcba 474b 8cbb 5452 e9ba
00000010: 3f65 cb3a 083f 1b3b ae82 07bc 130d e6bb
00000020: d89f bfb9 59c9 f53b 3fd1 f8ba 3856 ab39
00000030: a69d 30bb 0d4d 16bb 0787 7639 b04c a7ba
00000040: e6e5 093c f974 4bbc d569 0b3c 62ef 343c
00000050: 8c61 103b ef81 db39 dc73 223c fdde 2bbb
00000060: 3b27 2b3b aacf 0bbc 5ec2 6c3b 920c cabb
00000070: e9fe d63b 8281 dcba 8fdb aeba c669 073b

net.contracts.0.lay.bnorm.running_mean f4 [32]
0.36601388 0.54448086 0.5807707 0.35522953 0.52482945 0.5246701 0.38846985 0.45006663
0.5141723 0.38467583 0.51227504 0.41525647 0.5569886 0.48719826 0.46627182 0.28076366
0.5588108 0.49334243 0.20600447 0.57992005 0.53465307 0.5997404 0.49026996 0.44358376
0.5331106 0.5256832 0.35009605 0.28391784 0.32188067 0.4014784 0.58057815 0.49010238
00000000: 2c66 bb3e 1963 0b3f 63ad 143f a5e0 b53e
00000010: 395b 063f c850 063f 85e5 c63e 226f e63e
00000020: cca0 033f 3bf4 c43e 7524 033f 7f9c d43e
00000030: ce96 0e3f 0d72 f93e 2ebb ee3e 41c0 8f3e
00000040: 390e 0f3f 6197 fc3e d6f2 523e a475 143f
00000050: 06df 083f 9688 193f aa04 fb3e 691d e33e
00000060: f079 083f 2d93 063f ca3f b33e ae5d 913e
00000070: 8bcd a43e 948e cd3e c5a0 143f b3ee fa3e
