models/Supervised.pt (torch, 170113 bytes, 96 tensors)

first.blocks.0.0.weight f4 [8, 1, 3, 3]
-0.044374596 -0.009419224 0.012232322 -0.037744135 -0.018102642 0.011777185 0.014942504 -0.022622755
0.040239003 0.030187236 0.060827862 0.020873701 0.029536486 0.050526243 0.031841043 0.0060482756
-0.023792718 0.001733921 0.042242404 0.015190996 0.008440241 0.0023629032 0.07077457 -0.027887713
0.015155984 0.046713743 0.0039007133 0.016167905 -0.04637329 -0.023942934 0.02121806 0.009240784
0.027432902 -0.012814476 -0.010685279 0.012623519 -0.03678998 -0.023141805 -0.018892178 -0.010986148
0.020681566 -0.004078722 0.045018468 0.022131873 0.00951261 0.0005297591 -0.009552414 0.023000138
0.033026755 -0.0007937798 0.07057463 0.022694599 -0.025912153 0.04280011 -0.0036552032 0.016051775
-0.013215246 0.09269692 -0.03184048 -0.008277954 0.046089202 0.0067918734 0.02939876 0.0039644404
-0.031874094 -0.021038549 0.008116739 -0.0032413548 0.075087205 0.024483494 0.010681323 -0.023273712
00000000: 23c2 35bd 1753 1abc 146a 483c 9899 1abd
00000010: fe4b 94bc 18f5 403c 68d1 743c 5b53 b9bc
00000020: a7d1 243d 394b f73c a326 793d 53ff aa3c
00000030: 80f6 f13c 9bf4 4e3d c16b 023d 9d30 c63b
00000040: f2e8 c2bc bc44 e33a 5f06 2d3d a8e3 783c
00000050: f048 0a3c f0da 1a3b 42f2 903d c674 e4bc
00000060: ce50 783c e956 3f3d 1ca3 7f3b 8e72 843c
00000070: ebf1 3dbd f923 c4bc 7fd1 ad3c a866 173c
00000080: f7ba e03c cff3 51bc 4f11 2fbc e0d2 4e3c
00000090: 17b1 16bd e293 bdbc c5c3 9abc 3fff 33bc
000000a0: 636c a93c cda6 85bb 4965 383d e74d b53c
000000b0: c7da 1b3c 88df 0a3a ba81 1cbc c96a bc3c
000000c0: 1047 073d a915 50ba 6e89 903d 06ea b93c
000000d0: b945 d4bc 2b4f 2f3d 228c 6fbb 037f 833c
000000e0: c284 58bc e2d7 bd3d 2a6b 02bd 41a0 07bc
000000f0: 08c8 3c3d 5d8e de3b abd5 f03c 23e8 813b
00000100: 698e 02bd 0959 acbc 12fc 043c e96c 54bb
00000110: 52c7 993d 9c91 c83c b700 2f3c 83a8 bebc

first.blocks.0.1.weight f4 [8]
-0.01978216 0.036524996 -0.009131342 -0.018063366 -0.020335807 -0.019594166 -0.032409318 0.019176856
00000000: 320e a2bc 3c9b 153d a09b 15bc a0f9 93bc
00000010: 4797 a6bc f283 a0bc a2bf 04bd c818 9d3c

first.blocks.0.1.bias f4 [8]
-0.004116796 0.02119458 -0.019329362 -0.003055025 -0.008084511 0.011772174 0.007433104 0.010291223
00000000: 30e6 86bb 41a0 ad3c 9c58 9ebc d036 48bb
00000010: e674 04bc 14e0 403c 6591 f33b 859c 283c

first.blocks.0.1.running_mean f4 [8]
-0.00837103 0.031492215 0.026701191 -0.00060857594 0.00053353986 0.023434293 0.020032553 0.0065086214
00000000: a526 09bc fbfd 003d 75bc da3c d788 1fba
00000010: 41dd 0b3a 46f9 bf3c 4f1b a43c 4646 d53b

first.blocks.0.1.running_var f4 [8]
0.0001105462 0.0010689722 0.0007709611 7.612248e-06 2.9192548e-05 0.0005817031 0.0004490392 5.3784373e-05
00000000: 0ad5 e738 c11c 8c3a 531a 4a3a b66c ff36
00000010: 85e2 f437 6f7d 183a 056d eb39 8896 6138

first.blocks.1.0.weight f4 [8, 8, 3, 3]
-0.012567217 -0.00060783164 0.008796211 -0.017065411 -0.014252154 0.009796087 0.013730394 0.022579866
-0.010953541 -0.010976713 0.014454505 0.029048612 -0.016984854 -0.024789512 -0.0022947858 -0.043721244
-0.011087878 -0.01999929 -0.012095957 -0.015159485 0.0005365657 0.0103687635 0.012868729 0.007834396
-0.038913924 -0.012664787 0.0402517 0.017081678 -0.0057741906 0.026792852 -0.051493086 0.013906462
0.011249661 -0.08717313 -0.017275225 0.043195616 0.0067246812 -0.02547503 0.044757266 -0.061747972
-0.027006576 0.032094423 -0.035371028 -0.0065506217 0.03340956 -0.026390133 -0.012500191 -0.03022569
-0.024297638 0.013386052 0.00755476 -0.03408741 0.023044586 0.023466315 0.015067441 0.011511797
0.011543404 -0.005850177 0.0118109165 -0.009522251 -0.01720814 0.012256453 0.019851979 -0.016395988
-0.002966938 -0.002096705 0.005404538 0.016799716 -0.033669278 0.043487277 -0.0037626424 -0.030806454
-0.011733599 -0.0016658318 0.016434614 0.004705697 -0.019461732 0.0074625686 0.007691207 -0.013364565
0.010657699 -0.020377556 -0.026126882 0.0047349646 0.012653623 0.022313809 0.0040477836 0.030673845
0.03947904 0.02145857 0.010001026 0.0057966826 0.0005107595 -0.035007913 0.011185826 -0.036455695
-0.0033906389 0.017819317 -0.010183032 0.012196761 -0.04835925 -0.012776199 0.03926982 -0.006072953
0.015594097 -0.036951926 -0.066939145 0.00023135236 0.045705758 0.020056132 -0.00015302825 -0.0069207507
-0.017115572 -0.021075135 -0.0109883705 0.028443592 0.049582202 -0.02663983 -0.090673335 -0.024926923
-0.02762108 -0.096896306 -0.024800563 -0.044489432 -0.060382906 -0.06472222 0.015902663 -0.042464186
-0.00011510306 -0.034520686 0.0106815165 0.0020325475 -0.012373512 0.020938713 -0.02056636 0.02153137
0.0049269837 -0.023716688 -0.04180898 -0.0025670514 -0.022591034 0.0006492642 -0.008019817 0.0076747113
0.04260288 0.013743144 0.033248186 0.017102996 -0.033353314 0.022713142 -0.027358882 -0.06445649
-0.027993213 0.03039071 -0.0061317165 0.01625044 -0.036222864 0.0003111534 -0.025627827 -0.05990334
-0.03204768 0.020213587 -0.013261474 0.03442275 0.032066446 0.01505194 0.0602801 0.023973038
0.0039195027 0.027742013 0.0022109412 0.017485918 0.021323059 0.0020928367 -0.0005912862 0.016266037
0.019442473 0.0062777423 0.04033156 0.027727988 -0.012810278 0.032312267 0.008788734 0.026716182
-0.037319228 0.022181248 -0.026081292 -0.0069480836 -0.023707362 0.017548928 0.041393094 -0.026222061
0.010595564 0.051986054 0.008512495 0.026438333 0.02513391 -0.039203357 -0.004877645 0.017500058
0.0023407256 0.0094957035 0.063353464 -0.002928357 0.0019523005 0.005949304 0.019262716 -0.03646959
-0.0010698738 0.012285792 0.05506899 0.011370461 0.025426663 -0.019944992 0.03540008 0.04842458
0.046575833 0.025002329 0.026014268 -0.030760959 0.011080343 0.0026414415 -0.014116747 0.0029880872
0.035692107 0.039126556 -0.0018916923 -0.022084482 -0.01561251 0.011353342 0.008758857 0.015524269
-0.006482802 -0.009380103 0.014231646 -0.052105445 0.03005048 -0.012573266 0.037202235 0.02868261
-0.014747051 0.01583424 -0.018431893 0.02805351 -0.032773305 0.03659002 0.0037825084 0.0053727967
-0.0062914365 0.016174292 -0.037630282 -0.0010485154 -0.014406397 -0.058266412 -0.02796954 0.010741965
00000000: bbe6 4dbc e456 1fba fc1d 103c c3cc 8bbc
00000010: de81 69bc c47f 203c 72f5 603c 69f9 b83c
00000020: 7b76 33bc acd7 33bc 97d2 6c3c 5bf7 ed3c
00000030: d223 8bbc 6013 cbbc 1e64 16bb 0c15 33bd
00000040: eea9 35bc 8dd5 a3bc 1f2e 46bc 7d5f 78bc
00000050: 51a8 0c3a bfe1 293c 5dd7 523c d75b 003c
00000060: 3564 1fbd f77f 4fbc f7de 243d e0ee 8b3c
00000070: 6c35 bdbb af7c db3c 6aea 52bd eed7 633c
00000080: 8050 383c d387 b2bd c684 8dbc e3ed 303d
00000090: b75a dc3b 03b1 d0bc 6553 373d 71eb 7cbd
000000a0: e53c ddbc 7175 033d 36e1 10bd 99a6 d6bb
000000b0: 76d8 083d 1f30 d8bc 9acd 4cbc de9b f7bc
000000c0: d70b c7bc 2c51 5b3c ec8d f73b 3d9f 0bbd
000000d0: 00c8 bc3c 6e3c c03c 6edd 763c fa9b 3c3c
000000e0: 8c20 3d3c d7b2 bfbb 9382 413c 3703 1cbc
000000f0: 16f8 8cbc 4acf 483c 9ea0 a23c e150 86bc
00000100: f670 42bb df68 09bb 8d18 b13b 8f9f 893c
00000110: cce8 09bd b71f 323d aa96 76bb d15d fcbc
00000120: 483e 40bc 0a58 daba e2a1 863c 3f32 9a3b
00000130: 366e 9fbc 9088 f43b 8506 fc3b 0cf7 5abc
00000140: a19d 2e3c d5ee a6bc 0b08 d6bc c327 9b3b
00000150: 2451 4f3c 73cb b63c 45a3 843b b747 fb3c
00000160: c6b4 213d e2c9 af3c 58db 233c 19f2 bd3b
00000170: 7de4 053a 7564 0fbd c144 373c 9152 15bd
00000180: 7b35 5ebb d1f9 913c bbd6 26bc ecd4 473c
00000190: 5914 46bd 4353 51bc 64d9 203d 9fff c6bb
000001a0: 627e 7f3c e75a 17bd 6417 89bd 2d97 7239
000001b0: f635 3b3d c24c a43c 3576 20b9 77c7 e2bb
000001c0: f535 8cbc c3a5 acbc 9108 34bc 8902 e93c
000001d0: b516 4b3d c63b dabc f1b2 b9bd 8c33 ccbc
000001e0: 9a45 e2bc 9271 c6bd 8d2a cbbc 8d3a 36bd
000001f0: 1154 77bd 158d 84bd 4d46 823c edee 2dbd
00000200: 7c63 f1b8 9065 0dbd 8701 2f3c 7d34 053b
00000210: 45ba 4abc aa87 ab3c c87a a8bc 8e62 b03c
00000220: 8972 a13b 8049 c2bc e53f 2bbd fa3b 28bb
00000230: d510 b9bc 6233 2a3a 8d65 03bc 257c fb3b
00000240: 5c80 2e3d ed2a 613c 402f 083d 951b 8c3c
00000250: 7c9d 08bd e910 ba3c bc1f e0bc c401 84bd
00000260: 0652 e5bc f0f5 f83c 91ec c8bb a51f 853c
00000270: 6d5e 14bd 4d22 a339 73f1 d1bc 345d 75bd
00000280: 6e44 03bd f796 a53c a746 59bc dffe 0c3d
00000290: 1b58 033d 6a9c 763c 44e8 763d 1b63 c43c
000002a0: 2c6f 803b 3843 e33c 70e5 103b a13e 8f3c
000002b0: b2ad ae3c f927 093b 8c00 1bba 5a40 853c
000002c0: d245 9f3c 85b5 cd3b b532 253d ce25 e33c
000002d0: 33e2 51bc de59 043d 9ffe 0f3c e5db da3c
000002e0: 0cdc 18bd 73b5 b53c 6fa8 d5bc c0ac e3bb
000002f0: f135 c2bc c5c2 8f3c ce8b 293d a6cf d6bc
00000300: 0499 2d3c 54ef 543d fe77 0b3c 3495 d83c
00000310: a1e5 cd3c b393 20bd a7d4 9fbb 485c 8f3c
00000320: dc66 193b de93 1b3c 76bf 813d aee9 3fbb
00000330: 56e4 ff3a 61f2 c23b d8cc 9d3c 2361 15bd
00000340: 023b 8cba 594a 493c 0590 613d 2c4b 3a3c
00000350: 944b d03c ae63 a3bc adff 103d da58 463d
00000360: 4dc6 3e3d afd1 cc3c e01b d53c 68fe fbbc
00000370: 548a 353c 091c 2d3b ee49 67bc c9d3 433b
00000380: e331 123d 2b43 203d a9f2 f7ba 84ea b4bc
00000390: 9dcb 7fbc 5e03 3a3c 4f81 0f3c 8159 7e3c
000003a0: af6d d4bb 01af 19bc da2b 693c 856c 55bd
000003b0: 6d2c f63c 1a00 4ebc 5f61 183d cbf7 ea3c
000003c0: 9d9d 71bc cfb6 813c 7bfe 96bc 79d0 e53c
000003d0: 4d3d 06bd 6bdf 153d f6e3 773b 490e b03b
000003e0: 6528 cebb f37f 843c 3622 1abd 576e 89ba
000003f0: cf08 6cbc c3a8 6ebd 6020 e5bc 11ff 2f3c

first.blocks.1.1.weight f4 [8]
0.010990067 0.023025105 0.025644716 0.012745316 0.04166504 0.007978827 -0.028319236 0.049127497
00000000: af0f 343c 259f bc3c de14 d23c bbd1 503c
00000010: f6a8 2a3d a0b9 023c befd e7bc ea39 493d

first.blocks.1.1.bias f4 [8]
-0.016790705 0.012615268 0.013486886 -0.0073241703 0.0049009365 0.0132159265 -0.011132958 -0.0082824025
00000000: a98c 89bc 45b0 4e3c 1af8 5c3c 98ff efbb
00000010: 0998 a03b 9d87 583c 0367 36bc eab2 07bc

first.blocks.1.1.running_mean f4 [8]
-0.0026553166 -0.0061728377 0.002187377 -0.0020018418 0.0028986454 -0.0057941764 -0.0029149123 0.0044484586
00000000: d204 2ebb 8445 cabb 195a 0f3b 5531 03bb
00000010: 33f7 3d3b 13dd bdbb 1d08 3fbb 60c4 913b

first.blocks.1.1.running_var f4 [8]
1.4846963e-05 7.370819e-05 2.933264e-05 4.6693585e-06 8.143587e-05 6.3453335e-06 8.0656624e-05 7.4257674e-05
00000000: 3817 7937 c893 9a38 5d0f f637 7cad 9c36
00000010: 8dc8 aa38 00ea d436 3226 a938 c9ba 9b38

first.shortcut.0.weight f4 [8, 1, 1, 1]
0.0083543 -0.033041183 -0.022150498 -0.0096535655 0.031688668 -0.029468678 0.012655471 0.030541882
00000000: 79e0 083c 3156 07bd f674 b5bc fd29 1ebc
00000010: facb 013d 4c68 f1bc e558 4f3c f832 fa3c

first.shortcut.1.weight f4 [8]
-0.0052650073 -0.022341078 0.01578443 -0.026871433 0.02780103 -0.027770555 0.008835836 0.02084734
00000000: 1586 acbb a304 b7bc 594e 813c 7b21 dcbc
00000010: fcbe e33c 137f e3bc 2fc4 103c 0ac8 aa3c

first.shortcut.1.bias f4 [8]
-0.016790705 0.012615268 0.013486886 -0.0073241703 0.0049009365 0.0132159265 -0.011132958 -0.0082824025
00000000: a98c 89bc 45b0 4e3c 1af8 5c3c 98ff efbb
00000010: 0998 a03b 9d87 583c 0367 36bc eab2 07bc

first.shortcut.1.running_mean f4 [8]
0.0012655099 -0.004992165 -0.0033606722 -0.0014268433 0.0047886693 -0.004435867 0.0018537621 0.0046165055
00000000: 77df a53a 5195 a3bb b93e 5cbb eb04 bbba
00000010: 45ea 9c3b c05a 91bb eff9 f23a 0e46 973b

first.shortcut.1.running_var f4 [8]
1.8235257e-06 2.8368175e-05 1.2856822e-05 2.3187365e-06 2.6103027e-05 2.2397779e-05 3.9141482e-06 2.4260393e-05
00000000: debf f435 31f8 ed37 a1b3 5737 979b 1b36
00000010: d3f7 da37 dde2 bb37 4756 8336 cc82 cb37

first.bnorm.weight f4 [8]
0.014793321 -0.028349062 0.019895915 0.016541013 -0.029074956 0.025220599 -0.023072615 0.02562157
00000000: af5f 723c 4b3c e8bc c2fc a23c 0581 873c
00000010: 9a2e eebc 6e9b ce3c c802 bdbc 54e4 d13c

first.bnorm.bias f4 [8]
0.025974274 -0.009447939 -0.030857477 -0.015224356 -0.020647198 0.027593099 -0.047835276 -0.031372875
00000000: 00c8 d43c 87cb 1abc d2c8 fcbc 946f 79bc
00000010: 5024 a9bc ec0a e23c ecee 43bd d880 00bd

first.bnorm.running_mean f4 [8]
-0.006570163 0.02875633 0.030772276 -0.0013000648 0.024633178 0.026623076 -7.243426e-05 0.011428704
00000000: 864a d7bb 6592 eb3c 2416 fc3c f066 aaba
00000010: 85cb c93c a318 da3c d9e7 97b8 753f 3b3c

first.bnorm.running_var f4 [8]
4.2329993e-06 0.0013096214 0.0006658351 6.960567e-05 0.002625095 0.0005117204 0.00031510805 0.0020117238
00000000: 3009 8e36 9aa7 ab3a 708b 2e3a 42f9 9138
00000010: c909 2c3b fa24 063a 1635 a539 20d7 033b

contracts.0.lay.blocks.0.0.weight f4 [16, 8, 3, 3]
-0.043287314 -0.04200945 -0.04517144 -0.047444515 -0.03273278 -0.005208691 -0.013548204 0.047152273
0.017164577 -0.039153516 -0.03920614 -0.006021626 0.020338342 0.019153364 -0.013090482 -0.04576027
-0.05566091 -0.02924189 -0.00028507487 0.013539071 0.041946925 0.05318092 0.04627327 0.066877514
0.04824298 0.035778288 0.02135968 -0.045207217 -0.04681154 -0.0518901 -0.017611198 -0.012516231
-0.05040381 -0.05222003 -0.027869837 -0.046130754 -0.036669247 -0.00016692468 0.032490678 0.011229466
-0.009286544 0.0016705522 -0.010769877 0.023204288 -0.037323367 0.015383324 -0.00086303236 -0.0021409907
-0.02969978 -0.036036316 0.0040569645 0.018373832 0.011954021 -0.018537827 -0.0135018295 0.0069662826
-0.00039382052 -0.022749698 -0.005769413 0.03337368 0.0014564751 -0.022511423 0.010017267 0.019997982
-0.01720543 0.03793131 -0.0413075 0.011365597 0.0037468662 0.029515054 0.06608236 -0.002370347
-0.0071110814 0.039837964 0.0110852355 0.006592173 0.020407908 0.040809065 -0.039243955 -0.005287854
0.012426224 -0.0068623964 0.009397329 -0.026704723 -0.0007247943 0.017842803 0.009191963 -0.0009023107
-0.022385007 0.005429497 0.07915645 0.020885808 -0.00793529 0.02876246 0.0462551 0.032257013
0.05168628 -0.014921546 0.027526384 -0.0036311243 0.01504952 -0.006033609 0.0071521415 -0.006519982
0.016266748 0.019875323 0.0009767712 -0.0006748601 -0.024775306 -0.007012307 0.026678631 0.008456528
0.019325936 0.01066044 0.0033859815 0.003358402 0.050726242 -0.078780025 -0.04325418 -0.007897066
-0.050173387 -0.020650886 -0.0043240944 -0.0075873802 -0.0010466086 -0.00073899404 -0.010362074 -0.028001387
-0.006164843 0.026192755 -0.004690543 0.005191336 -0.015160406 -0.01636463 0.0048277583 -0.002382183
-0.016975233 0.0133336345 -0.04576655 -0.01837902 0.011436178 0.032174416 -0.005426227 -0.01241918
-0.00032010968 0.0059593627 0.018425819 0.0026048974 -0.01746539 0.010389715 0.008305623 0.032295786
0.022337006 0.021319836 0.028188013 0.020052841 0.024088187 0.05836317 -0.005107253 0.021738743
0.021233456 0.017968193 0.01467717 -0.0052339183 0.040310554 0.03216174 -0.048163794 0.028755082
0.019990994 -0.025439413 0.028932719 0.011241743 -0.0062047383 0.012711104 -0.028844666 -0.008686312
0.024907198 0.013182895 0.01734086 -0.014751887 -0.011386026 0.050236218 0.010569493 0.0031241677
0.037370034 0.031419303 -0.006003282 0.0010559917 0.028374549 -0.027975293 -0.02485713 0.009266675
-0.0077991853 0.01766536 0.00020820278 -0.039684772 -0.0035973375 -0.0016512205 0.010436438 0.013105606
-0.0041473294 -0.010137698 0.021974962 0.012011819 0.011349747 0.044151533 0.008997237 -0.031808335
-0.005196094 0.007891885 -0.027705437 -0.00750046 -0.002014304 -0.023492467 0.0162902 0.034758147
-0.018250205 0.018847272 0.027082013 0.021897579 -0.011913209 -0.008717177 0.015829954 -0.032742787
-0.014870741 0.011722049 -0.05156524 0.009419862 -0.023460208 -0.02113931 0.041978423 -0.0102961315
-0.025017798 0.0068756845 0.011881524 -0.009700151 -0.036379036 -0.008412048 -0.025261566 0.0020720738
-0.02110671 -0.05664372 0.015056552 0.0015208647 -0.021654857 0.018319082 -0.003777549 -0.034355965
-0.0028894113 -0.005620888 -0.026077999 -0.0019613677 -0.003012064 -0.041832257 0.007547854 -0.014146533
00000000: 0a4e 31bd 1a12 2cbd b005 39bd 2e55 42bd
00000010: cf12 06bd abad aabb 49f9 5dbc be22 413d
00000020: ba9c 8c3c 705f 20bd 9e96 20bd 0f51 c5bb
00000030: 989c a63c 84e7 9c3c 7679 56bc 1f6f 3bbd
00000040: b2fc 63bd b08c efbc 1a76 95b9 fbd2 5d3c
00000050: 8ad0 2b3d 3dd4 593d 0a89 3d3d 14f7 883d
00000060: 6e9a 453d 418c 123d 7ffa ae3c 342b 39bd
00000070: 75bd 3fbd b78a 54bd 5c45 90bc e110 4dbc
00000080: 3a74 4ebd ace4 55bd 494f e4bc 9af3 3cbd
00000090: 7e32 16bd 8108 2fb9 f214 053d cbfb 373c
000000a0: 9726 18bc 6ef6 da3a 2374 30bc eb16 be3c
000000b0: 63e0 18bd 560a 7c3c 1f3d 62ba dd4f 0cbb
000000c0: f44c f3bc d19a 13bd 49f0 843b b884 963c
000000d0: ccda 433c a4dc 97bc c736 5dbc 6a45 e43b
000000e0: b279 ceb9 935d babc 580d bdbb d7b2 083d
000000f0: 32e7 be3a e069 b8bc 771f 243c cfd2 a33c
00000100: 67f2 8cbc dc5d 1b3d 0e32 29bd c536 3a3c
00000110: fc8d 753b 8ec9 f13c 3056 873d d357 1bbb
00000120: 1304 e9bb 222d 233d d99e 353c 2803 d83b
00000130: 7c2e a73c 6827 273d 45be 20bd bc45 adbb
00000140: 5c97 4b3c f4dd e0bb 41f7 193c ddc3 dabc
00000150: 1f00 3eba 122b 923c e399 163c 0c89 6cba
00000160: c360 b7bc ece9 b13b c71c a23d b718 ab3c
00000170: 0503 02bc 409f eb3c fd75 3d3d ee1f 043d
00000180: feb4 533d 8079 74bc 037f e13c 28f8 6dbb
00000190: 4392 763c 95b5 c5bb 835c ea3b 93a5 d5bb
000001a0: d841 853c 93d1 a23c 0107 803a 18e9 30ba
000001b0: 95f5 cabc 7fc7 e5bb 258d da3c 408d 0a3c
000001c0: 6d51 9e3c 20a9 2e3c 58e7 5d3b a318 5c3b
000001d0: 52c6 4f3d 6c57 a1bd 4c2b 31bd b262 01bc
000001e0: 9c82 4dbd 0c2c a9bc 22b1 8dbb 8f9f f8bb
000001f0: 5b2e 89ba 0db9 41ba b0c5 29bc 2a63 e5bc
00000200: 7402 cabb 3092 d63c 20b3 99bb 151c aa3b
00000210: 5a63 78bc 1e0f 86bc 2c32 9e3b 661e 1cbb
00000220: a50f 8bbc 5175 5a3c b575 3bbd 998f 96bc
00000230: cf5e 3b3c 52c9 033d 7ece b1bb d179 4bbc
00000240: 65d4 a7b9 c246 c33b bef1 963c edb6 2a3b
00000250: 9413 8fbc a039 2a3c 4f14 083c 9648 043d
00000260: 19fc b63c f0a6 ae3c 8cea e63c db45 a43c
00000270: 9754 c53c 380e 6f3d be5a a7bb 7315 b23c
00000280: c9f1 ad3c 0832 933c 8378 703c 4a81 abbb
00000290: ae1c 253d 07bc 033d 6647 45bd c78f eb3c
000002a0: 27c4 a33c 5166 d0bc 4f04 ed3c 4a2f 383c
000002b0: 1e51 cbbb 3c42 503c a64b ecbc 0851 0ebc
000002c0: 2e0a cc3c 12fd 573c 6b0e 8e3c e6b1 71bc
000002d0: 748c 3abc 7ec4 4d3d ab2b 2d3c d6be 4c3b
000002e0: 5211 193d 87b1 003d 2eb7 c4bb 3469 8a3a
000002f0: be71 e83c 712c e5bc 2ea1 cbbc 41d3 173c
00000300: 4f90 ffbb f2b6 903c 0251 5a39 808c 22bd
00000310: 4fc1 6bbb c46d d8ba 98fd 2a3c e5b8 563c
00000320: 52e6 87bb 9618 26bc d604 b43c 38cd 443c
00000330: 4af4 393c 3dd8 343d 2669 133c 7549 02bd
00000340: ff43 aabb f74c 013c 83f6 e2bc 6bc6 f5bb
00000350: 6a02 04bb 4673 c0bc 0773 853c 8f5e 0e3d
00000360: 7481 95bc 9865 9a3c 19db dd3c 8d62 b33c
00000370: 9f2f 43bc 7ed2 0ebc d2ad 813c 4d1d 06bd
00000380: 69a4 73bc d60d 403c 1336 53bd c455 1a3c
00000390: 9f2f c0bc 592c adbc 91f1 2b3d 1bb1 28bc
000003a0: 20f2 ccbc 6c4d e13b b9aa 423c 62ed 1ebc
000003b0: 2f02 15bd b0d2 09bc 58f1 cebc a1cb 073b
000003c0: fbe7 acbc 3f03 68bd c2af 763c c057 c73a
000003d0: 8765 b1bc e611 963c c190 77bb d7b8 0cbd
000003e0: 475c 3dbb 6d2f b8bb 87a1 d5bc 4a8a 00bb
000003f0: 0c66 45bb 4d58 2bbd fd53 f73b dcc6 67bc

contracts.0.lay.blocks.0.1.weight f4 [16]
0.03051515 0.04745204 -0.010766104 -0.049512114 -0.03754465 0.0056118784 -0.012796006 0.0069157206
0.0064157024 0.011171436 0.029307408 0.00040756783 0.021363202 -0.025695253 -0.02094897 0.026417278
00000000: e8fa f93c 125d 423d 5064 30bc 37cd 4abd
00000010: 6bc8 19bd d9e3 b73b 57a6 51bc 459d e23b
00000020: d03a d23b 6608 373c 1716 f03c d4ae d539
00000030: e201 af3c da7e d2bc 2d9d abbc 0c69 d83c

contracts.0.lay.blocks.0.1.bias f4 [16]
0.0029050608 0.006005214 -0.0008847289 0.0023394844 0.015304468 -0.008144391 -0.011119441 0.022201816
-0.013501797 0.005118404 0.01588517 -0.0077742278 -0.0127627915 -0.015524188 -0.021771103 0.0027545237
00000000: d562 3e3b 63c7 c43b 27ed 67ba 0952 193b
00000010: 97bf 7a3c 0d70 05bc 512e 36bc 95e0 b53c
00000020: a436 5dbc 49b8 a73b 9e21 823c f3be febb
00000030: 071b 51bc 2a59 7ebc 5059 b2bc 3d85 343b

contracts.0.lay.blocks.0.1.running_mean f4 [16]
-0.011634383 -0.010737325 -0.010271428 0.01794944 0.010669913 0.011481438 -0.0007402982 -0.004425444
-0.0036209696 -0.001048889 -0.008343467 0.0032270374 0.0058444953 -0.00060495385 0.0007713103 -0.0039046346
00000000: 249e 3ebc 9beb 2fbc 7e49 28bc b40a 933c
00000010: dcd0 2e3c a41c 3c3c 9210 42ba 5103 91bb
00000020: ca4d 6dbb e07a 89ba 09b3 08bc b47c 533b
00000030: 2e83 bf3b c495 1eba c231 4a3a e6e4 7fbb

contracts.0.lay.blocks.0.1.running_var f4 [16]
1.2863042e-05 0.00014295166 0.00022710332 4.4274828e-05 1.2523371e-05 2.8409343e-06 5.8051764e-06 6.37926e-05
3.961409e-05 1.41123655e-05 1.6974009e-05 3.224342e-05 1.2823255e-05 1.1821919e-05 3.1163025e-05 3.9118368e-05
00000000: 58ce 5737 4be5 1539 9522 6e39 bcb3 3938
00000010: 781b 5237 e1a6 3e36 16ca c236 64c8 8538
00000020: 4e27 2638 26c4 6c37 6863 8e37 1c3d 0738
00000030: 7623 5737 c156 4637 0bb5 0238 0713 2438

contracts.0.lay.blocks.1.0.weight f4 [16, 16, 3, 3]
0.021696541 0.010453243 0.00159115 0.08084442 0.010552329 0.039006334 0.048217095 0.014776815
0.016297694 -0.007268442 -0.036655348 -0.028241716 -0.0052167457 0.0117923105 0.01780859 -0.007607548
0.0023941672 0.018901408 0.008465356 0.0044089286 0.00048166356 0.023186801 0.0066152895 -0.013360863
0.03499818 0.032750838 -0.017169375 -0.031884596 -0.025311733 0.0054048477 -0.0019069152 0.020533605
-0.02133489 0.0382317 -0.00046451055 0.009875645 -0.027771698 0.005930342 0.013144313 0.04564175
0.00478771 -0.019608244 0.029804071 0.00010293582 -0.018836593 0.06216765 -0.0017388939 0.018965134
-0.0039855256 -0.00091457524 -0.0078893285 -0.01804763 0.013044647 -0.016121559 -0.0265624 0.018782984
-0.0038723378 0.0013502401 0.022569407 -0.009353517 0.03199054 0.003364763 0.00955125 -0.0068763075
0.00587107 0.020084035 0.0025818343 -0.024051538 -0.033771288 0.012819814 -0.015535388 0.0074969754
-0.024535792 -0.036782764 -0.00536329 -0.027239755 -0.020362563 -0.007878604 0.004464299 0.020165203
-0.014516996 -0.05712397 -0.037057597 0.0044991644 -0.01327987 -0.004126767 0.002091651 0.00024383265
0.029039303 -0.012654387 -0.013079252 -0.00517196 0.020348337 0.0072567454 -0.006056745 0.01259221
0.017496042 0.04376844 0.027155938 -0.007851276 -0.016296081 0.010675642 0.004067187 -0.008622076
0.01362371 0.0021579461 -0.0038261616 -0.021051522 -0.0155489845 0.005810417 0.073645175 -0.009219389
-0.034195434 0.0137560945 -0.021501983 0.013341598 -0.036167465 -0.040224787 -0.024449004 0.022960544
-0.021161024 0.035144262 -0.032299608 -0.0068296907 -0.008324176 -0.05444434 -0.025190817 0.00076225784
-0.033373125 0.033637896 0.00092989934 -0.06873584 -0.021894222 0.03332277 0.02189116 -0.031605557
-0.018242722 0.004229773 0.0147726685 -0.017315146 -0.020800821 0.013476101 -0.009367464 -0.038877264
-0.022171132 0.002436697 0.025292955 -0.04019538 -0.0060314015 -0.012336814 -0.013747393 -0.059996773
-0.0069672805 -0.052420463 -0.0143200075 0.031647995 -0.04559319 -0.0147503 0.008149273 -0.020072876
-0.0054957434 -0.0064497055 0.009134445 -0.013486095 0.006270128 0.054373857 0.0051408303 -0.00031116616
-0.0094927475 -0.03236248 -0.0034744 -0.018869847 0.008429013 0.02084478 -0.035543036 -0.028923847
-0.018233724 -0.041777227 -0.06782234 -0.03652051 -0.010242462 0.04069375 -0.021565273 0.0017601501
0.008684974 -0.013178599 -0.013419203 -0.004840868 0.0027373754 0.020185325 0.008376448 -0.027805917
0.042517673 -0.007821397 0.016654886 -0.00533781 -0.026134046 -0.010975066 -0.0023052325 0.0042003593
0.013170788 -0.026235158 0.032947708 0.00949098 -0.025017988 0.020208525 -0.05057004 0.02044847
0.012803176 -0.004004355 0.04441051 -0.01567954 -0.023612842 0.04979543 -0.015283049 0.03711718
-0.01681645 -0.0061378 0.01911871 -0.020256763 0.020639272 -0.05875173 -0.030731361 0.053721588
-0.029656893 0.0026725554 0.007859808 -0.0041269874 -0.015019421 0.029386068 -0.007004958 -0.017274866
0.014484794 -0.044455364 -0.012538822 0.019588478 0.048367236 0.009761606 -0.020980125 0.010897464
0.031261843 -0.013246092 -0.0077853194 -0.008874617 -0.01800068 0.005383694 -0.01079362 0.008862855
-0.015573474 0.0048987954 -0.018612808 -0.021453675 0.012738947 -0.0054304013 0.0340155 0.035465173
00000000: f2bc b13c 1444 2b3c 228e d03a c291 a53d
00000010: ade3 2c3c 1bc5 1f3d 4a7f 453d 741a 723c
00000020: be82 853c 1c2c eebb eb23 16bd 2c5b e7bc
00000030: 3cf1 aabb 8934 413c 52e3 913c bd48 f9bb
00000040: 76e7 1c3b 20d7 9a3c 47b2 0a3c c678 903b
00000050: ca87 fc39 3ff2 bd3c 12c5 d83b 85e7 5abc
00000060: 405a 0f3d be25 063d caa6 8cbc 6c99 02bd
00000070: 8d5a cfbc 261b b13b 75f1 f9ba 1736 a83c
00000080: 82c6 aebc d898 1c3d 8d89 f3b9 75cd 213c
00000090: 7981 e3bc 5053 c23b 3f5b 573c d8f2 3a3d
000000a0: 39e2 9c3b 78a1 a0bc ab27 f43c 3fdf d738
000000b0: 334f 9abc 81a3 7e3d 99eb e3ba c55c 9b3c
000000c0: 0399 82bb 1bc0 6fba 3e42 01bc a0d8 93bc
000000d0: 37b9 553c 5c11 84bc 6499 d9bc c6de 993c
000000e0: 0cc7 7dbb 8afa b03a 7ae3 b83c 7e3f 19bc
000000f0: 8308 033d 5b83 5c3b d97c 1c3c a652 e1bb
00000100: 1b62 c03b 4687 a43c fe33 293b bb07 c5bc
00000110: c353 0abd 320a 523c 2488 7ebc 30a9 f53b
00000120: 49ff c8bc 86a9 16bd 8abe afbb e825 dfbc
00000130: 64cf a6bc 4315 01bc 4149 923b 7f31 a53c
00000140: b2d8 6dbc d3fa 69bd b5c9 17bd ba6d 933b
00000150: d093 59bc d539 87bb 1514 093b 54ad 7f39
00000160: d5e3 ed3c 5954 4fbc 5c4a 56bc 8c79 a9bb
00000170: 8eb1 a63c fec9 ed3b a977 c6bb 8f4f 4e3c
00000180: dc53 8f3c 8946 333d 2176 de3c a3a2 00bc
00000190: 5c7f 85bc e3e8 2e3c 0a46 853b 9c43 0dbc
000001a0: fb35 5f3c 546c 0d3b 57c0 7abb 3e74 acbc
000001b0: 2bc1 7ebc 4f65 be3b 48d3 963d ec0c 17bc
000001c0: 8310 0cbd 3e61 613c ed24 b0bc b896 5a3c
000001d0: 5624 14bd bfc2 24bd 4749 c8bc c017 bc3c
000001e0: e259 adbc 6ef3 0f3d 984c 04bd 99cb dfbb
000001f0: 2062 08bc 0701 5fbd f95c cebc 42d2 473a
00000200: 42b2 08bd e4c7 093d 7dc4 733a 60c5 8cbd
00000210: 835b b3bc 757d 083d 1755 b33c d474 01bd
00000220: c371 95bc e899 8a3b 1009 723c 7ed8 8dbc
00000230: 7c66 aabc ddca 5c3c fe79 19bc c43d 1fbd
00000240: 3ca0 b5bc feb0 1f3b 2c33 cf3c e9a3 24bd
00000250: 10a3 c5bb 5920 4abc bf3c 61bc 2dbf 75bd
00000260: c94d e4bb d7b6 56bd 779e 6abc 54a1 013d
00000270: edbf 3abd 3eab 71bc 8784 053c df6f a4bc
00000280: a315 b4bb 0d58 d3bb a4a8 153c c8f4 5cbc
00000290: a575 cd3b 1fb7 5e3d 6974 a83b 0424 a3b9
000002a0: 7887 1bbc 858e 04bd c2b2 63bb f094 9abc
000002b0: d819 0a3c acc2 aa3c 9395 11bd b4f1 ecbc
000002c0: e45e 95bc 991e 2bbd 70e6 8abd 8896 15bd
000002d0: 00d0 27bc 7dae 263d a8a9 b0bc d6b4 e63a
000002e0: 6c4b 0e3c 0deb 57bc 38dc 5bbc 25a0 9ebb
000002f0: 8a65 333b b25b a53c 5f3d 093c 3cc9 e3bc
00000300: 0327 2e3d 5125 00bc d46f 883c cce8 aebb
00000310: 1117 d6bc c3d0 33bc 6213 17bb 2ba3 893b
00000320: 4aca 573c 1deb d6bc 2df4 063d 0e80 1b3c
00000330: 86f2 ccbc 598c a53c 8822 4fbd 8d83 a73c
00000340: 6ac4 513c f736 83bb cce7 353d 6172 80bc
00000350: b86f c1bc 4bf6 4b3d c165 7abc 2f08 183d
00000360: a7c2 89bc 991f c9bb d79e 9c3c 83f1 a5bc
00000370: b113 a93c a7a5 70bd 56c0 fbbc 2b0b 5c3d
00000380: 03f3 f2bc 0a26 2f3b 6dc6 003c ae3b 87bb
00000390: 0414 76bc 0dbb f03c d989 e5bb 0584 8dbc
000003a0: a151 6d3c d416 36bd a26f 4dbc 0478 a03c
000003b0: b91c 463d 25ef 1f3c 83de abbc 478b 323c
000003c0: 6b0c 003d 2306 59bc fe1b ffbb d766 11bc
000003d0: 2976 93bc b369 b03b b9d7 30bc 8235 113c
000003e0: e227 7fbc 1386 a03b e379 98bc 9ebf afbc
000003f0: 04b7 503c 82f1 b1bb d653 0b3d ee43 113d

contracts.0.lay.blocks.1.1.weight f4 [16]
-0.008130537 0.021537695 -0.03276329 -0.03116435 0.03592743 0.015930643 -0.040486157 -0.035073046
0.03330817 -0.034569066 0.038569022 0.025786247 0.024522373 -0.033420347 0.013602349 -0.0027837893
00000000: f235 05bc d26f b03c cd32 06bd 614c ffbc
00000010: a428 133d fb80 823c d0d4 25bd c1a8 0fbd
00000020: 266e 083d 4b98 0dbd 8dfa 1d3d ae3d d33c
00000030: 25e3 c83c c6e3 08bd 63dc 5e3c 3c70 36bb

contracts.0.lay.blocks.1.1.bias f4 [16]
-0.013589236 0.0071098926 -0.002347076 0.014252365 -0.0026328557 0.015479427 -0.004076724 0.010890469
-0.009318046 -0.014993207 -0.0111417 -0.0029782692 -0.0068019633 7.57631e-05 -0.026542058 0.007498188
00000000: 63a5 5ebc 1afa e83b 67d1 19bb c082 693c
00000010: fd8b 2cbb 6c9d 7d3c 0a96 85bb f06d 323c
00000020: b8aa 18bc 11a6 75bc ad8b 36bc 112f 43bb
00000030: 01e3 debb 01e3 9e38 bb6e d9bc 5cb3 f53b

contracts.0.lay.blocks.1.1.running_mean f4 [16]
0.0023631032 -0.0025350433 -0.0074907513 -0.0034912832 -0.009417068 -0.0019515208 -0.011727138 0.00957251
-0.0022605548 -0.0022305627 -0.0014018799 0.001551285 0.0005229264 0.00532886 -0.008408294 0.0017078535
00000000: 4bde 1a3b f822 26bb fa74 f5bb 03ce 64bb
00000010: 0c4a 1abc 2cca ffba 2f23 40bc 04d6 1c3c
00000020: d125 14bb a22e 12bb 49bf b7ba 7d54 cb3a
00000030: ff14 093a b89d ae3b f1c2 09bc 0eda df3a

contracts.0.lay.blocks.1.1.running_var f4 [16]
1.1941941e-05 6.791538e-05 2.5368105e-05 0.00010081133 1.820945e-05 5.6027824e-05 0.00019270866 0.00015268105
1.023803e-05 3.044536e-05 1.582511e-05 2.1414357e-05 1.2710268e-05 1.2729537e-05 1.1353354e-05 6.961008e-06
00000000: 3f5a 4837 cb6d 8e38 97cd d437 ac6a d338
00000010: 7fc0 9837 6bff 6a38 d611 4a39 0219 2039
00000020: 01c4 2b37 ea64 ff37 2ac0 8437 fba2 b337
00000030: 2f3e 5537 f290 5537 497a 3e37 9a92 e936

contracts.0.lay.shortcut.0.weight f4 [16, 8, 1, 1]
0.01776687 -0.01889888 0.019940335 -0.029095879 -0.017423633 -0.0017602836 0.0014313067 -0.0060769725
0.014980582 -0.0075198547 0.01753301 -0.0070047276 -0.009156502 -0.012746423 -0.0024489637 0.03432276
-0.017925242 0.03053445 -0.020060476 -0.022080889 0.04425924 -0.014910683 0.027637959 -0.015723867
-0.024933722 -0.04343664 -0.06378907 -0.016489312 -0.051417775 0.040681187 0.019619152 -0.029327357
0.012881951 0.017083595 -0.017544717 -0.016799655 -0.0006061721 0.0028932951 -0.02320004 -0.002633866
0.01663291 0.008270742 0.017774794 0.016977407 -0.010624234 0.041429684 -0.0056333854 0.027222048
-0.0025759814 0.004291754 -0.029487483 0.022603711 0.012369321 -0.0027010844 0.025358692 -0.032653674
0.00892422 -0.022935411 -0.029796408 0.01649 -0.026573492 0.015410825 0.018385628 -0.0006939966
0.0208113 -0.026017277 0.0071691996 0.005020855 -0.026288314 -0.029946007 0.022656515 -0.013321294
-0.0039858255 -0.025321867 0.009373014 -0.004186608 -0.0139287915 0.025097033 0.0066864374 0.0327327
0.023453314 4.776466e-05 -0.0029446648 0.008338497 0.0037879576 -0.029332153 0.014431631 -0.029622233
-0.017137084 0.007422089 -0.039450873 -0.017373538 0.0010520271 -0.028380657 0.039145097 -0.026121533
0.033917554 -0.008804904 0.05375918 0.02505183 -0.033020955 -0.028794922 -0.019454127 0.0072971536
0.04596208 -0.0053791795 -0.012179801 0.016540362 0.015317301 -0.027651986 -0.008555004 -0.019193595
0.030655652 -0.02919164 -0.012677298 0.0061747474 -0.01016365 -0.006328961 0.0026888123 -0.0064087925
0.025111761 0.0651886 0.034737784 0.024473503 0.022601139 -0.002148011 0.02552531 -0.004123391
00000000: d48b 913c d3d1 9abc ea59 a33c 7b5a eebc
00000010: 02bc 8ebc 51b9 e6ba af9a bb3a 5721 c7bb
00000020: 1d71 753c 1d69 f6bb 63a1 8f3c ea87 e5bb
00000030: 2705 16bc 5fd6 50bc cb7e 20bb 0696 0c3d
00000040: f5d7 92bc 6223 fa3c de55 a4bc fbe2 b4bc
00000050: 2d49 353d f04b 74bc 0069 e23c 57cf 80bc
00000060: ce41 ccbc 9eea 31bd d8a3 82bd 9814 87bc
00000070: 729b 52bd 51a1 263d 58b8 a03c ed3f f0bc
00000080: d20e 533c e5f2 8b3c f0b9 8fbc 6e9f 89bc
00000090: 85e7 1eba 709d 3d3b 030e bebc f09c 2cbb
000000a0: be41 883c 0282 073c 729c 913c 3414 8b3c
000000b0: 4411 2ebc 2cb2 293d 4398 b8bb c600 df3c
000000c0: ccd1 28bb d8a1 8c3b bc8f f1bc 6b2b b93c
000000d0: b1a8 4a3c ad04 31bb 08bd cf3c dcbf 05bd
000000e0: e436 123c 0be3 bbbc 9917 f4bc 0916 873c
000000f0: a7b0 d9bc af7d 7c3c 759d 963c 53ed 35ba
00000100: 767c aa3c 2f22 d5bc 9beb ea3b fc85 a43b
00000110: 975a d7bc 5451 f5bc 289a b93c 8f41 5abc
00000120: 879b 82bb ce6f cfbc 4591 193c d02f 89bb
00000130: 9635 64bc 4b98 cd3c e719 db3b b912 063d
00000140: 2a21 c03c ea56 4838 47fb 40bb 319e 083c
00000150: 623f 783b fc49 f0bc a672 6c3c 53aa f2bc
00000160: 1263 8cbc ff34 f33b 3d97 21bd f352 8ebc
00000170: 2ce4 893a 8d7e e8bc 9c56 203d d3fc d5bc
00000180: 22ed 0a3d 7242 10bc 9632 5c3d 7f39 cd3c
00000190: fb40 07bd 54e3 ebbc 435e 9fbc f61c ef3b
000001a0: bc42 3c3d d443 b0bb ca8d 47bc a77f 873c
000001b0: 6bf5 7a3c 6b86 e2bc 4a2a 0cbc e33b 9dbc
000001c0: 9021 fb3c 4e23 efbc 71b4 4fbc 8955 ca3b
000001d0: 7085 26bc 2c63 cfbb c936 303b d900 d2bb
000001e0: 2eb7 cd3c 9a81 853d 3549 0e3d a87c c83c
000001f0: 0626 b93c a5c5 0cbb 741a d13c 831d 87bb

contracts.0.lay.shortcut.1.weight f4 [16]
0.0017481627 -0.0065018786 -0.016203018 0.035836402 -0.00075048336 0.023695465 0.014995214 0.01868398
0.0072738403 -0.016136307 0.019511694 -0.026084477 0.002041402 0.004861174 -0.009852032 -0.023432538
00000000: 9b22 e53a b60d d5bb 31bc 84bc 31c9 123d
00000010: 16bc 44ba fe1c c23c 7cae 753c 250f 993c
00000020: 6559 ee3b 4a30 84bc fdd6 9f3c 1daf d5bc
00000030: 0bc9 053b 7c4a 9f3b 6b6a 21bc 98f5 bfbc

contracts.0.lay.shortcut.1.bias f4 [16]
-0.013589236 0.0071098926 -0.002347076 0.014252365 -0.0026328557 0.015479427 -0.004076724 0.010890469
-0.009318046 -0.014993207 -0.0111417 -0.0029782692 -0.0068019633 7.57631e-05 -0.026542058 0.007498188
00000000: 63a5 5ebc 1afa e83b 67d1 19bb c082 693c
00000010: fd8b 2cbb 6c9d 7d3c 0a96 85bb f06d 323c
00000020: b8aa 18bc 11a6 75bc ad8b 36bc 112f 43bb
00000030: 01e3 debb 01e3 9e38 bb6e d9bc 5cb3 f53b

contracts.0.lay.shortcut.1.running_mean f4 [16]
0.000816689 -0.0011086606 -0.0019477621 0.003745676 0.0021886372 0.0007430455 -3.12301e-05 0.0011656481
-0.0006901435 -0.00033463337 -0.00015772271 -0.0012030662 -0.00047482867 0.001173276 0.001383682 -0.002434703
00000000: 1217 563a 7a50 91ba 0d4c ffba 047a 753b
00000010: 3d6f 0f3b f0c8 423a 11fd 02b8 a9c8 983a
00000020: bfea 34ba bb71 afb9 5e62 25b9 34b0 9dba
00000030: 6df2 f8b9 9cc8 993a aa5c b53a 8a8f 1fbb

contracts.0.lay.shortcut.1.running_var f4 [16]
1.3846756e-07 5.32776e-07 1.0004369e-05 1.2493499e-05 3.561453e-08 3.06732e-06 1.1040926e-06 4.2540905e-06
2.4093382e-07 4.797544e-06 3.532385e-06 3.8170456e-06 1.0747716e-06 1.2995652e-06 6.277847e-07 1.1168888e-05
00000000: acad 1434 1704 0f35 70d8 2737 2b9b 5137
00000010: 97f6 1833 28d8 4d36 5530 9435 5cbe 8e36
00000020: b159 8134 97fa a036 ea0d 6d36 2c14 8036
00000030: df40 9035 b86c ae35 0985 2835 0262 3b37

contracts.0.lay.bnorm.weight f4 [16]
0.045613658 -0.041549277 0.015750512 -0.02491519 -0.0152413035 -0.0149596725 0.028484628 -0.040493675
-0.01210179 -0.01434936 0.015304596 -0.016327128 -0.016445553 0.0108394995 0.035851628 0.050826922
00000000: 63d5 3a3d 932f 2abd 3807 813c f11a ccbc
00000010: a9b6 79bc 6a19 75bc 9858 e93c b2dc 25bd
00000020: 9646 46bc 9419 6bbc 21c0 7a3c 78c0 85bc
00000030: d3b8 86bc 2898 313c 28d9 123d e42f 503d

contracts.0.lay.bnorm.bias f4 [16]
0.009505776 -0.025800439 -0.004409805 -0.023179827 -0.00171669 -0.007922381 -0.013272673 -0.010117976
-0.052555803 -0.011366581 -0.016857963 0.032825902 -0.025909489 -0.03888549 -0.014067367 0.058053326
00000000: 1dbe 1b3c 715b d3bc 2080 90bb 9fe3 bdbc
00000010: 8f02 e1ba e0cc 01bc a075 59bc dec5 25bc
00000020: c144 57bd e53a 3abc b619 8abc 7474 063d
00000030: 2340 d4bc 6446 1fbd d07a 66bc 53c9 6d3d

contracts.0.lay.bnorm.running_mean f4 [16]
-0.0053727245 0.01661537 0.0045103803 0.0282462 0.006517246 0.030670878 0.010022103 0.028705152
-0.0025717202 -0.0049615544 -0.0021705288 0.005214504 -0.0012090434 0.00790571 -0.01050359 0.015399167
00000000: ae0d b0bb f51c 883c d0cb 933b 9364 e73c
00000010: 9f8e d53b 7e41 fb3c bf33 243c 1127 eb3c
00000020: 4e8a 28bb 8994 a2bb 6e3f 0ebb 6ede aa3b
00000030: c478 9eba f386 013c 4017 2cbc ca4c 7c3c

contracts.0.lay.bnorm.running_var f4 [16]
1.2862662e-06 0.00027700746 0.00025411884 0.00019002966 0.00026857213 8.1021324e-05 0.00047272493 0.0013197816
7.3764975e-05 0.00010905128 0.0001703071 0.00048915006 5.727653e-05 0.00019867529 3.4548887e-06 0.00025988728
00000000: c5a3 ac35 503b 9139 413b 8539 b342 4739
00000010: 24cf 8c39 fee9 a938 11d8 f739 86fc ac3a
00000020: 45b2 9a38 76b2 e438 7794 3239 4e3a 003a
00000030: 353c 7038 7e53 5039 89da 6736 7b41 8839

contracts.1.lay.blocks.0.0.weight f4 [32, 16, 3, 3]
-0.038016852 0.05438855 -0.03837068 -0.056537442 0.028570678 -0.025684915 -0.055275783 0.012897415
0.012102761 0.0071021593 0.0046603004 -0.030856377 0.020751264 0.02796459 0.026712008 -0.045226857
0.00642424 -0.0065273927 -0.003421316 -0.016794201 0.039243665 -0.008299664 0.047989275 0.040897872
-0.0021897324 -0.032582894 -0.024411486 -0.0149112 0.018961422 -0.022714067 0.0012517255 -0.0038792114
0.04132075 -0.041428022 -0.016357003 0.001775534 -0.026035449 -0.03401139 0.015572492 -0.0130949225
0.01592458 0.047767866 -0.016902592 -0.0044278037 0.00615809 -0.021255437 -0.04025874 0.033161033
0.0002566678 0.047946762 0.06610727 -0.01876616 -0.019156521 -0.057947274 0.0142009705 0.014089053
-0.0032722037 0.008296615 -0.01767345 0.03376642 0.027564181 -0.004254761 0.010947973 -0.016263798
-0.026343465 -0.055984944 0.0076587945 0.0205623 -0.010647344 -0.009338157 0.0322842 0.0015226735
0.06630984 0.08796997 -0.0055309576 0.03287911 0.025149923 0.02725769 0.06808667 0.079639874
0.0055382964 0.0033688587 0.006023649 -0.019722452 0.024579639 -0.06736838 0.019035187 -0.02270502
-0.019957399 -0.022033947 0.008811309 0.041221038 0.047808103 0.024344161 0.0032191223 0.03012963
0.010385834 0.056054693 0.0402999 0.024211342 -0.027360525 -0.035166558 0.031347126 0.05065891
0.0026278791 0.029277846 0.02525787 -0.026873063 0.044679645 0.04695995 0.10388095 0.01707469
0.021966806 0.03368686 0.04159437 0.010722138 0.07469386 0.040771496 -0.021737013 -0.0072165327
0.025868395 -0.01863665 0.01001717 0.021310313 0.03182916 0.031309307 0.026015237 0.026139123
-0.009553499 -0.00606232 -0.008764881 -0.03502369 -0.02922039 0.022862686 -0.009691275 -0.018930087
0.04044705 0.045178216 0.001119077 0.033553913 0.043771144 0.011405146 0.042874053 0.041612312
-0.025526296 -0.0040000807 -0.026653321 -0.0069063096 0.022583568 -0.016396532 -0.00050668116 0.020114906
-0.026425874 0.035111886 0.020883761 0.03701101 0.0005580987 -0.024839928 -0.022367205 0.02127197
0.04468476 0.030281877 -0.029704155 -0.0071055917 -0.0014936475 -0.023181362 -0.049947266 -0.0068121045
-0.037002824 -0.021649491 -0.012930247 0.02639077 0.017984573 0.007441499 0.010838774 0.008333446
-0.005547972 0.009948378 -0.0047343196 0.01828023 0.03220633 0.00019126118 -0.0022561857 -0.038805798
0.022876669 -0.0026171342 -0.008391282 0.020646684 0.025153344 0.07646913 -0.011323521 0.030622534
0.029238282 -0.014727157 -0.008732133 0.021943375 -0.013691016 -0.04057775 0.05086818 0.056485906
0.07182914 0.010750291 -0.024087258 0.012377375 0.009213578 -0.017286565 -0.00405055 0.00635132
0.028270086 0.015008937 0.0020543933 -0.022432089 -0.008665119 0.046224672 0.013294665 0.006791707
-0.023704676 -0.00789652 0.015242853 -0.02759589 -0.0021048556 0.03488072 -0.019851366 -0.0071490356
0.03405868 0.021858614 0.04919239 0.06838304 0.01482296 0.009217265 0.025716716 0.025290389
-0.023157448 0.031177158 0.0022668997 -0.019604774 -0.03712747 -0.016590128 -0.010697893 0.0041195685
-0.037159365 -0.0042307405 -0.020448627 -0.048256632 -0.0072677685 -0.0016764635 -0.023518503 0.040141314
-0.02523903 0.018909546 -0.02281167 -0.040444463 -0.012755309 0.012137231 0.017642936 -0.051850777
00000000: 8fb7 1bbd 87c6 5e3d 932a 1dbd ce93 67bd
00000010: 0e0d ea3c 2c69 d2bc dc68 62bd ae4f 533c
00000020: a94a 463c 3bb9 e83b 6fb5 983b 83c6 fcbc
00000030: 8efe a93c ff15 e53c 24d3 da3c cc3f 39bd
00000040: 6e82 d23b bde3 d5bb 2838 60bb fe93 89bc
00000050: f7bd 203d 50fb 07bc 6790 443d 8784 273d
00000060: 9d81 0fbb a475 05bd 99fa c7bc 1b4e 74bc
00000070: fc54 9b3c da12 babc f010 a43a 5e3a 7ebb
00000080: f23f 293d 6eb0 29bd 1fff 85bc 09b9 e83a
00000090: 4b48 d5bc 874f 0bbd c423 7f3c 168c 56bc
000000a0: 4474 823c 3da8 433d 4e77 8abc 1c17 91bb
000000b0: cec9 c93b e21f aebc 59e6 24bd ddd3 073d
000000c0: 5e91 8639 d363 443d 4063 873d 7dbb 99bc
000000d0: 23ee 9cbc 1f5a 6dbd 30ab 683c c5d5 663c
000000e0: 7872 56bb 87ee 073c e9c7 90bc a84e 0a3d
000000f0: 47ce e13c 866b 8bbb 205f 333c a83b 85bc
00000100: 40ce d7bc 7850 65bd a0f6 fa3b 4572 a83c
00000110: 3372 2ebc 12ff 18bc 703c 043d 7294 c73a
00000120: 74cd 873d 9a29 b43d 093d b5bb 3fac 063d
00000130: 3607 ce3c 854b df3c 0671 8b3d 3b1a a33d
00000140: 997a b53b 12c8 5c3b 0862 c53b fb90 a1bc
00000150: 3d5b c93c 6ff8 89bd aeef 9b3c e1ff b9bc
00000160: b37d a3bc 8980 b4bc 4f5d 103c 64d7 283d
00000170: 6ed2 433d 686d c73c e9f7 523b 6ad2 f63c
00000180: 5829 2a3c 9b99 653d 8211 253d dd56 c63c
00000190: 2e23 e0bc cf0a 10bd d865 003d b87f 4f3d
000001a0: 7f38 2c3b 18d8 ef3c 98e9 ce3c e624 dcbc
000001b0: 0102 373d 1459 403d 89bf d43d 38e0 8b3c
000001c0: bbf3 b33c 3cfb 093d dc5e 2a3d e8ab 2f3c
000001d0: 18f9 983d 0300 273d d211 b2bc aa78 ecbb
000001e0: f5e9 d33c e3ab 98bc 0e1f 243c f792 ae3c
000001f0: 4b5f 023d 303e 003d e81d d53c b721 d63c
00000200: 4786 1cbc 6da6 c6bb 939a 0fbc 0075 0fbd
00000210: 995f efbc 874a bb3c 27c8 1ebc 4513 9bbc
00000220: ceab 253d cb0c 393d fead 923a d46f 093d
00000230: 5f49 333d a6dc 3a3c b49c 2f3d ac71 2a3d
00000240: 861c d1bc 1c13 83bb 1158 dabc 534e e2bb
00000250: 2d01 b93c 0552 86bc ccd2 04ba 04c8 a43c
00000260: 137b d8bc 7bd1 0f3d 6c14 ab3c db98 173d
00000270: 5f4d 123a 1b7d cbbc 6e3b b7bc 8e42 ae3c
00000280: 5e07 373d b311 f83c 2156 f3bc 06d6 e8bb
00000290: 7ec6 c3ba d7e6 bdbc 8195 4cbd 1338 dfbb
000002a0: 4690 17bd 465a b1bc 63d9 53bc 7531 d83c
000002b0: 6254 933c d1d7 f33b 1d95 313c 0289 083c
000002c0: c3cb b5bb 86fe 223c 5a22 9bbb 6cc0 953c
000002d0: c9ea 033d 488d 4839 84dc 13bb d4f2 1ebd
000002e0: da67 bb3c 3a84 2bbb 967b 09bc 3c23 a93c
000002f0: 630e ce3c d99b 9c3d 4a86 39bc 1cdc fa3c
00000300: 1f85 ef3c 2c4a 71bc 3811 0fbc 98c2 b33c
00000310: 4850 60bc db34 26bd 275b 503d c45d 673d
00000320: 281b 933d fd21 303c a452 c5bc 79ca 4a3c
00000330: 8cf4 163c 8e9c 8dbc 7aba 84bb bc1e d03b
00000340: ab96 e73c 0be8 753c 00a3 063b 80c3 b7bc
00000350: 25f8 0dbc 1556 3d3d ded1 593c f88c de3b
00000360: 4f30 c2bc 6860 01bc 29bd 793c c710 e2bc
00000370: 9ef1 09bb 16df 0e3d 559f a2bc 7542 eabb
00000380: 1d81 0b3d d610 b33c f67d 493d 680c 8c3d
00000390: 00dc 723c 0304 173c ddab d23c ca2d cf3c
000003a0: b0b4 bdbc 3d67 ff3c 4490 143b 319a a0bc
000003b0: f912 18bd 05e8 87bc 3746 2fbc 72fd 863b
000003c0: 6b34 18bd 06a2 8abb e183 a7bc bfa8 45bd
000003d0: 7626 eebb c8bc dbba e0a9 c0bc 386b 243d
000003e0: 15c2 cebc 31e8 9a3c 8adf babc 18a9 25bd
000003f0: a5fb 50bc 3ddb 463c eb87 903c 7b61 54bd

contracts.1.lay.blocks.0.1.weight f4 [32]
-0.020557748 0.042558834 0.00017811923 0.023736933 0.02604912 -0.02575033 0.025740022 0.015703069
-0.025817037 -0.013522454 -0.02302223 0.014146942 0.004509875 -0.028728155 -0.00037465655 0.023312833
-0.030159181 -0.02773415 0.02381248 -0.041802537 -0.035829764 -0.005961938 -0.02327886 0.024291068
-0.026954506 0.013777928 -0.032498732 0.026868928 -0.035290774 0.017971436 0.021782652 0.026857054
00000000: b968 a8bc 2c52 2e3d 84c5 3a39 f573 c23c
00000010: f764 d53c 5bf2 d2bc bddc d23c b9a3 803c
00000020: 407e d3bc 488d 5dbc 1e99 bcbc 93c8 673c
00000030: 93c7 933b 4f57 ebbc 8d6d c4b9 8efa be3c
00000040: 6310 f7bc ba32 e3bc 6412 c33c 2339 2bbd
00000050: 3bc2 12bd 5c5c c3bb 4fb3 bebc 10fe c63c
00000060: b2cf dcbc d2bc 613c 641d 05bd 3a1c dc3c
00000070: 0f8d 10bd d538 933c 8871 b23c 5303 dc3c

contracts.1.lay.blocks.0.1.bias f4 [32]
0.015276329 4.12164e-05 -0.005091569 -0.012972153 0.011265276 -0.0034013658 -0.011839492 -0.0069151153
-0.0027744558 0.006857164 -0.016631775 -0.01892286 -0.013651898 -0.026881324 -0.012277934 0.004410419
0.002028024 -0.008086393 -0.0044179554 0.0052211294 0.0019270265 -0.021330357 -0.00970578 0.006801334
-0.0061286003 0.0028681569 -0.008077138 -0.013956601 0.005083581 -0.0072797737 -0.008140822 -0.014680198
00000000: 9149 7a3c c6df 2c38 2dd7 a6bb 2789 54bc
00000010: fe91 383c 73e9 5ebb 6efa 41bc 3198 e2bb
00000020: a5d3 35bb 10b2 e03b 5c3f 88bc 1d04 9bbc
00000030: 36ac 5fbc 3936 dcbc 6329 49bc 4785 903b
00000040: 99e8 043b ca7c 04bc 7fc4 90bb 0216 ab3b
00000050: 4894 fc3a 00bd aebc fe04 1fbc badd de3b
00000060: 6dd2 c8bb b0f7 3b3b f955 04bc 3aaa 64bc
00000070: 2b94 a63b 2b8b eebb 1561 05bc 3785 70bc

contracts.1.lay.blocks.0.1.running_mean f4 [32]
-0.01435225 -0.02172581 0.010156341 0.0024514813 -0.00022086398 -0.0074257557 0.005214131 0.0059232675
0.008826206 -0.010177951 -0.0007538437 0.0064084004 -0.0010233162 -0.013357616 0.011363825 0.0117237745
-0.017108584 -0.0013361188 -0.001215043 -0.002148802 0.02255152 -0.005698465 0.012943401 0.009705215
-0.012279021 -0.004032733 0.0024839393 0.0075986413 -0.0017224583 0.010608696 0.0069040502 -0.003964212
00000000: b325 6bbc 53fa b1bc c866 263c 08a9 203b
00000010: b997 67b9 c153 f3bb 4ddb aa3b f817 c23b
00000020: cb9b 103c 6cc1 26bc 989d 45ba 8ffd d13b
00000030: cb20 86ba e7d9 5abc 562f 3a3c 1315 403c
00000040: 4d27 8cbc b520 afba 1442 9fba ead2 0cbb
00000050: f7bd b83c 30ba babb 8f10 543c 9f02 1f3c
00000060: f22d 49bc 0425 84bb 96c9 223b 06fe f83b
00000070: 1cc4 e1ba 19d0 2d3c 5f3b e23b 38e6 81bb

contracts.1.lay.blocks.0.1.running_var f4 [32]
0.00020057915 0.00021621159 0.00019947904 3.917861e-05 0.0001388571 5.632151e-05 0.00043860747 3.548935e-05
0.00016170186 7.949456e-05 3.607212e-05 2.6874626e-05 5.0868613e-05 0.00010109936 9.35343e-05 0.0001752859
0.00021963897 6.1240666e-05 0.00035931016 0.00025833212 0.00043561033 6.165692e-05 3.519249e-05 9.064939e-05
9.6656666e-05 0.00010462909 0.00017673496 4.2960335e-05 0.00016469035 8.447922e-05 8.3705425e-05 7.488976e-05
00000000: 8e52 5239 dbb6 6239 3f2b 5139 b653 2438
00000010: 2b9a 1139 c33a 6c38 e6f4 e539 66da 1438
00000020: 838e 2939 51b6 a638 254c 1738 d270 e137
00000030: c25b 5538 4e05 d438 d827 c438 f3cc 3739
00000040: e34e 6639 556e 8038 cb61 bc39 c070 8739
00000050: a162 e439 cf4d 8138 a69b 1338 051b be38
00000060: 27b4 ca38 516c db38 ee51 3939 4f30 3438
00000070: bbb0 2c39 702a b138 028b af38 220e 9d38
