models/Supervised.pt (torch, 169084 bytes, 96 tensors)

first.blocks.0.0.weight f4 [8, 1, 3, 3]
-0.037392564 0.04167091 -0.012568902 -0.006369997 -0.017177967 -0.013711221 -0.05670891 -0.01676666
-0.008300519 -0.048232142 0.03419462 0.021184603 -0.00031634353 0.046369255 -0.059216727 0.019577937
-0.022118153 0.0066720378 0.043087337 -0.0019776917 0.030748246 -0.026413253 -0.022975273 -0.009666418
0.0020496421 -0.030662358 0.05016805 -0.041161444 0.008857075 -0.013083614 -0.04281492 -0.05495621
0.0034020608 0.032706715 0.01844582 0.018019468 -0.048980262 -0.014268961 0.023666207 -0.017924955
0.0169655 0.018246068 0.008303097 0.004971659 0.011307892 -0.040575657 -0.030669091 -0.021114184
-0.014549052 -0.027507473 -0.01928243 0.013260163 0.0029506513 0.0066070743 0.004448695 -0.018423395
-0.029933289 -0.025096318 0.06674251 0.026582234 0.00074429647 -0.0113040535 -0.008310188 0.014045256
0.03527708 0.0098846 0.025387447 -0.033902854 -0.038188115 0.017975854 -0.020734748 -0.02272694
00000000: f228 19bd 1eaf 2a3d cced 4dbc 68bb d0bb
00000010: cfb8 8cbc 07a5 60bc 9a47 68bd 3c5a 89bc
00000020: e6fe 07bc 118f 45bd a80f 0c3d 558b ad3c
00000030: e9da a5b9 b0ed 3d3d 3d8d 72bd e961 a03c
00000040: 2131 b5bc 1ca1 da3b 597c 303d 299c 01bb
00000050: bfe3 fb3c 9b60 d8bc a436 bcbc e55f 1ebc
00000060: 4a53 063b a02f fbbc 037d 4d3d e798 28bd
00000070: 441d 113c a85c 56bc b35e 2fbd c319 61bd
00000080: 1cf5 5e3b 7af7 053d b01b 973c 909d 933c
00000090: 879f 48bd 5cc8 69bc a2df c13c 5bd7 92bc
000000a0: 3bfb 8a3c c778 953c b709 083c 4ce9 a23b
000000b0: bd44 393c a932 26bd bf3d fbbc a7f7 acbc
000000c0: 265f 6ebc 5a57 e1bc 30f6 9dbc 2841 593c
000000d0: b75f 413b 2880 d83b 5cc6 913b a9ec 96bc
000000e0: a836 f5bc cb96 cdbc 4cb0 883d fcc2 d93c
000000f0: e41c 433a a334 39bc 7427 08bc 131e 663c
00000100: b37e 103d 04f3 213c 56f9 cf3c b8dd 0abd
00000110: 246b 1cbd 1942 933c ebdb a9bc d92d babc

first.blocks.0.1.weight f4 [8]
-0.019732242 0.004685076 -0.021731585 0.019192897 0.012279686 -0.035182353 0.007979016 0.018523566
00000000: 83a5 a1bc 4485 993b 7006 b2bc 6c3a 9d3c
00000010: bc30 493c 5f1b 10bd 6bba 023c bcbe 973c

first.blocks.0.1.bias f4 [8]
-0.0013412848 0.02260817 -0.01539177 -0.00845869 -0.009151703 0.019500226 0.028439555 0.0015592902
00000000: 0dce afba c534 b93c c32d 7cbc 5196 0abc
00000010: 06f1 15bc f0be 9f3c 12fa e83c 1961 cc3a

first.blocks.0.1.running_mean f4 [8]
-0.019042894 -0.0006183337 0.0051269103 -0.0103335725 0.0002601072 -0.019499622 0.0007905822 -0.0020012993
00000000: d8ff 9bbc ac17 22ba a4ff a73b 254e 29bc
00000010: ff5e 8839 acbd 9fbc 133f 4f3a 3b28 03bb

first.blocks.0.1.running_var f4 [8]
0.00038516536 7.946627e-06 3.6780035e-05 0.00014014369 2.537938e-05 0.0004150229 7.1917193e-06 3.411215e-05
00000000: 05f0 c939 8152 0537 4344 1a38 89f3 1239
00000010: cee5 d437 6e97 d939 6650 f136 a413 0f38

first.blocks.1.0.weight f4 [8, 8, 3, 3]
-0.0115631195 0.03366573 0.007746068 -0.02568699 0.019650232 0.004066366 -0.020906541 -0.013404575
-0.037268415 -0.018931944 0.008966673 -0.00039636955 0.014929647 -0.06542775 -0.012566735 -0.008097084
-0.08111112 0.019392768 0.023948438 -0.02968504 0.022248823 0.016690362 -0.02649115 -0.034833476
0.027496895 -0.0137260845 0.044291604 -0.0134656485 -0.0010744259 0.002840491 -0.008392278 0.0005059144
0.028863695 0.015027831 -0.028270725 -7.786375e-05 -0.0050356193 0.00014759989 0.011734196 0.005395667
-0.040887855 -0.013443276 -0.013647117 -0.017210657 -0.021877654 -0.003486014 -0.042602327 -0.012109042
-0.0011016631 0.0046515483 -0.013305856 0.009538251 0.028735584 -0.020835713 0.0017078773 0.016458722
0.042682253 -0.037594676 -0.030253025 0.03684013 0.028797682 0.015086942 0.028288003 0.006976024
0.026757699 -0.03314517 0.025204845 0.030049734 -0.009720107 -0.021040767 -0.039683193 -0.0047084857
-0.015328696 -0.01698848 -0.0010485277 -0.020955427 -0.028823815 -0.03283607 -0.026618509 -0.030253112
-0.034276374 -0.014935472 -0.00089012715 -0.0051496304 0.021214161 -0.026573194 -0.02085431 0.020359494
0.018839907 -0.019204805 0.012933397 -0.004302278 0.0056732367 -0.0017014683 0.017787674 0.008478624
0.009442769 -0.00032680226 -0.0018361644 -0.011115022 0.02344471 -0.034914352 -0.0137233 0.025846615
-0.004083303 0.0030159045 0.020827506 -0.0019709384 0.060443524 0.006136312 0.038573332 0.061705906
-0.0059849364 0.010386867 0.0065980214 -0.012768539 -0.032273002 0.05827973 0.026793037 -0.05113548
0.07379212 0.04809341 -0.0006650298 0.0069978195 0.0069777556 -0.0063778763 0.013733316 -0.036235757
0.003090274 0.00041698493 -0.009972704 0.015419067 0.0005094913 0.0030066974 0.0011988037 0.0019626475
0.0062200157 -0.0072703897 0.015383224 0.00396318 0.0040820497 -0.009884376 -0.016621562 -0.010367788
-0.015071543 -0.053767473 -0.011938712 -0.014707865 0.010286003 -0.049254645 -0.028862411 0.018661128
0.032317884 -0.022133583 0.015161304 0.0007921178 -0.021032149 0.0022812334 0.003958643 0.031263348
-0.013389191 0.0006735465 -0.032421142 0.04736854 0.015307862 -0.0064011416 0.071583614 -0.016818963
0.012173593 0.007827566 -0.0010543141 0.011365689 0.0018425672 -0.008197657 0.0074465894 0.002551146
0.0051567266 0.036833998 0.022189539 0.043334156 0.00039880464 -0.05316344 0.004850824 -0.011131172
0.014587347 0.027761439 0.018361498 -0.0052914363 0.015584601 -0.01917871 0.022060864 0.002614217
-0.04023501 -0.009641606 0.00019438427 0.0013360454 -0.06858072 -0.011744433 -1.1866498e-05 -0.021450976
-0.027927263 0.009742371 0.04258701 0.01476714 -0.0068034464 0.020813331 -0.001839779 0.04182772
0.003981406 -0.032536346 0.031558353 0.01693708 -0.059380498 -0.012045749 -0.0041106474 -0.0135691725
-0.007788439 -0.0015922881 0.003071185 0.032316152 -0.003899549 0.018649904 0.034807812 -0.0009297723
0.048694905 0.005359945 -0.0075023784 0.021968052 -0.021617172 -0.005249732 0.0066016233 0.016267555
-0.014763724 -0.043383054 0.014331426 0.024824748 0.013375158 0.016076682 0.03078842 -0.00018031549
-0.043509338 -0.011757974 -0.022485139 0.0052505895 -0.019258393 0.013221164 0.012396041 0.011442373
-0.008341838 0.0055324654 0.011132435 -0.051124435 -0.067961425 -0.046497256 -0.030773735 -0.042129938
00000000: 3d73 3dbc 14e5 093d bad2 fd3b 866d d2bc
00000010: 86f9 a03c 263f 853b 3244 abbc dd9e 5bbc
00000020: c4a6 18bd 2a17 9bbc f4e8 123c d2cf cfb9
00000030: 7a9b 743c fcfe 85bd b5e4 4dbc a2a9 04bc
00000040: 961d a6bd 95dd 9e3c 842f c43c 0a2e f3bc
00000050: 2a43 b63c 3aba 883c f803 d9bc 8cad 0ebd
00000060: 2b41 e13c 5fe3 60bc 1d6b 353d 069f 5cbc
00000070: c0d3 8cba 8827 3a3b c47f 09bc 579f 043a
00000080: 8e73 ec3c 4b37 763c 0298 e7bc c84a a3b8
00000090: d601 a5bb 0bc5 1a39 c940 403c 23ce b03b
000000a0: 067a 27bd 3041 5cbc 2898 5fbc 5dfd 8cbc
000000b0: c438 b3bc 9c75 64bb c77f 2ebd 0165 46bc
000000c0: ae65 90ba 046c 983b ce00 5abc 5346 1c3c
000000d0: e366 eb3c a8af aabc dada df3a 71d4 863c
000000e0: 96d3 2e3d e0fc 19bd 31d5 f7bc ade5 163d
000000f0: 1ee9 eb3c 392f 773c 3ebc e73c 2197 e43b
00000100: f632 db3c 3bc3 07bd 647a ce3c dc2a f63c
00000110: 1541 1fbc b05d acbc d88a 22bd a449 9abb
00000120: 3625 7bbc 6d2b 8bbc c06e 89ba b7aa abbc
00000130: ec1f ecbc 1d7f 06bd 0f0f dabc 60d5 f7bc
00000140: 6265 0cbd e9b3 74bc 6c57 69ba 3bbe a8bb
00000150: 52c9 ad3c 07b0 d9bc a8d6 aabc f4c8 a63c
00000160: 2656 9a3c 6553 9dbc 99e6 533c 20fa 8cbb
00000170: 8fe6 b93b cd03 dfba 75b7 913c ede9 0a3c
00000180: d8b5 1a3c a856 abb9 74ab f0ba c81b 36bc
00000190: 1f0f c03c 5a02 0fbd b1d7 60bc 48bc d33c
000001a0: 3acd 85bb 7ba6 453b 729e aa3c dc2a 01bb
000001b0: a193 773d 1e13 c93b 12ff 1d3d 55bf 7c3d
000001c0: 491d c4bb ae2d 2a3c 3734 d83b 2233 51bc
000001d0: b230 04bd bab6 6e3d 127d db3c 7073 51bd
000001e0: 5320 973d 98fd 443d 6555 2eba f74d e53b
000001f0: a8a5 e43b 81fd d0bb b401 613c f26b 14bd
00000200: 3286 4a3b c59e da39 8d64 23bc 41a0 7c3c
00000210: 628f 053a 030c 453b 2d21 9d3a c39f 003b
00000220: 46d1 cb3b 733c eebb eb09 7c3c 90dd 813b
00000230: b7c2 853b 14f2 21bc f129 88bc a8dd 29bc
00000240: a2ee 76bc 483b 5cbd 969a 43bc 42f9 70bc
00000250: a086 283c 3dbf 49bd dd70 ecbc 39df 983c
00000260: c25f 043d 7d51 b5bc 1e67 783c 20a6 4f3a
00000270: 9d4b acbc bf80 153b 81b7 813b ff0d 003d
00000280: 565e 5bbc f190 303a 08cc 04bd 8405 423d
00000290: d4cd 7a3c abc0 d1bb 6e9a 923d ecc7 89bc
000002a0: c073 473c 313f 003c e930 8aba 2837 3a3c
000002b0: 4c82 f13a 774f 06bc 8502 f43b 2131 273b
000002c0: c2f9 a83b 3fdf 163d d6c6 b53c 287f 313d
000002d0: a716 d139 e8c1 59bd a9f3 9e3b 855f 36bc
000002e0: c5ff 6e3c f56b e33c da6a 963c c963 adbb
000002f0: 8e56 7f3c ac1c 9dbc fcb8 b43c 4953 2b3b
00000300: 77cd 24bd d4f7 1dbc a1d3 4b39 3f1e af3a
00000310: 0c74 8cbd b96b 40bc 3916 47b7 f5b9 afbc
00000320: b7c7 e4bc 779e 1f3c b76f 2e3d e0f1 713c
00000330: 72ef debb b880 aa3c bd24 f1ba 8b53 2b3d
00000340: 7476 823b d544 05bd 5543 013d a2bf 8a3c
00000350: f738 73bd 895b 45bc 9cb2 86bb 3c51 5ebc
00000360: 2936 ffbb 53b4 d0ba ef45 493b f15d 043d
00000370: 938f 7fbb afc7 983c a392 0e3d f6bb 73ba
00000380: 4f74 473d 7aa2 af3b 83d6 f5bb 58f6 b33c
00000390: 7f16 b1bc f205 acbb 6e52 d83b 8943 853c
000003a0: 8ce3 71bc 6eb2 31bd 5bce 6a3c 455d cb3c
000003b0: 7b23 5b3c 3fb3 833c ff37 fc3c 1213 3db9
000003c0: d936 32bd 84a4 40bc c132 b8bc 230d ac3b
000003d0: c7c3 9dbc 959d 583c c418 4b3c ca78 3b3c
000003e0: 34ac 08bc af49 b53b d164 363c db67 51bd
000003f0: 5c2f 8bbd e873 3ebd 3319 fcbc 7190 2cbd

first.blocks.1.1.weight f4 [8]
-0.007325744 -0.04089733 -0.041038517 -0.05487697 -0.015429765 0.041521024 0.004898999 0.01917719
00000000: cb0c f0bb f583 27bd 0118 28bd acc6 60bd
00000010: 20cd 7cbc f311 2a3d c887 a03b 7b19 9d3c

first.blocks.1.1.bias f4 [8]
0.036269967 0.016459841 -0.002112279 -0.016370896 0.010456616 0.012656011 0.02122627 0.010774739
00000000: d18f 143d cad6 863c 296e 0abb 421c 86bc
00000010: 3a52 2b3c 285b 4f3c b7e2 ad3c 8888 303c

first.blocks.1.1.running_mean f4 [8]
-0.001689535 0.0013411571 -0.0028185532 -0.0037324312 -0.0017343822 -0.006250353 -0.0050307815 -0.0009369492
00000000: 6373 ddba c4c9 af3a 7ab7 38bb ce9b 74bb
00000010: 3654 e3ba c3cf ccbb 41d9 a4bb 999d 75ba

first.blocks.1.1.running_var f4 [8]
6.193219e-06 6.551396e-06 4.498087e-05 2.3016231e-05 4.339078e-06 9.000204e-05 4.7183794e-06 1.23572645e-05
00000000: 59cf cf36 10d4 db36 d7a9 3c38 fb12 c137
00000010: 6598 9136 7abf bc38 9252 9e36 0c52 4f37

first.shortcut.0.weight f4 [8, 1, 1, 1]
-0.022248643 -2.3800822e-05 0.0033282633 0.019007074 -0.013906796 2.7103865e-06 0.010167696 0.023802346
00000000: c942 b6bc e0a7 c7b7 fe1e 5a3b b9b4 9b3c
00000010: 55d9 63bc 16e4 3536 6896 263c 23fd c23c

first.shortcut.1.weight f4 [8]
0.023799147 -2.6446454e-05 0.003117761 0.02183915 -0.02172141 -1.0648015e-06 -0.023037514 -0.03522319
00000000: 6ef6 c23c 54d9 ddb7 5a53 4c3b 04e8 b23c
00000010: 19f1 b1bc 4dea 8eb5 2bb9 bcbc 3146 10bd

first.shortcut.1.bias f4 [8]
0.036269967 0.016459841 -0.002112279 -0.016370896 0.010456616 0.012656011 0.02122627 0.010774739
00000000: d18f 143d cad6 863c 296e 0abb 421c 86bc
00000010: 3a52 2b3c 285b 4f3c b7e2 ad3c 8888 303c

first.shortcut.1.running_mean f4 [8]
-0.0033177752 -4.184043e-06 0.00048291768 0.0028472142 -0.0020654737 4.349156e-07 0.0015417003 0.0035568734
00000000: 086f 59bb a864 8cb6 1d30 fd39 5498 3a3b
00000010: e65c 07bb 587e e934 e112 ca3a 6f1a 693b

first.shortcut.1.running_var f4 [8]
1.2521583e-05 2.0223526e-11 2.6537967e-07 9.221499e-06 4.856457e-06 2.2631873e-13 2.7040505e-06 1.4391273e-05
00000000: ca13 5237 55e3 b12d 8179 8e34 09b6 1a37
00000010: a6f4 a236 efcf 7e2a 3c77 3536 0c72 7137

first.bnorm.weight f4 [8]
-0.04051868 0.01599634 -0.022156475 0.02240232 0.0037179638 -0.021419238 0.023992645 0.034083597
00000000: eaf6 25bd c20a 833c 7f81 b5bc 1285 b73c
00000010: 15a9 733b 6677 afbc 398c c43c 3e9b 0b3d

first.bnorm.bias f4 [8]
-0.009493447 -0.013265216 0.03684346 0.008578047 0.05820531 0.038024105 -0.047216434 -0.037254166
00000000: 678a 1bbc 5956 59bc 2be9 163d f08a 0c3c
00000010: b168 6e3d 2abf 1b3d 0566 41bd d397 18bd

first.bnorm.running_mean f4 [8]
0.0724744 0.03466361 0.009239052 0.0037630827 0.021650618 0.031553473 0.042239472 0.028137155
00000000: 756d 943d 6efb 0d3d 655f 173c 0d9e 763b
00000010: a35c b13c 373e 013d 4c03 2d3d e47f e63c

first.bnorm.running_var f4 [8]
0.00019783765 0.0004311431 0.0008338053 0.001541444 0.0001316221 0.00062716077 7.377862e-05 0.0006429992
00000000: a472 4f39 0c0b e239 ba93 5a3a 470a ca3a
00000010: 0a04 0a39 0c68 243a 98b9 9a38 f28e 283a

contracts.0.lay.blocks.0.0.weight f4 [16, 8, 3, 3]
0.001159428 0.041689906 0.0014034664 -0.03253199 0.0037977463 0.029973716 0.04092045 -0.021696018
-0.04550639 0.015669787 0.012154143 0.019419944 -0.017239915 0.0067442507 -0.015370181 -0.034088388
-0.023624908 -0.0061129504 0.038666066 -0.033354156 -0.025191471 0.014308298 0.0038001216 -0.06546225
-0.04572357 -0.036262088 0.004524765 -0.03468929 -0.028367387 0.0025009464 -0.034861725 -0.020420484
-0.021441692 -0.018760188 0.04688182 -0.029829506 0.018528106 -0.047825858 -0.021432448 0.015032415
-0.027260631 0.0025286055 0.07128111 -0.018170115 -0.0011129809 -0.020025041 -0.029765664 -0.04765708
-0.004624527 -0.010195209 -0.050790347 0.033501938 -0.027742155 -0.019407995 0.033747137 -0.010363391
-0.006324988 0.008570527 -0.030500792 -0.018219212 0.0027607318 -0.0014098902 0.01908281 0.012403679
0.013154851 0.03901455 0.02157951 -0.032830548 0.022403888 -0.00090315944 -0.026094096 0.012588743
-0.021134425 -0.018986428 0.011686145 -0.012512635 -0.012797453 0.026189782 0.010654584 -0.009383007
-0.024026029 -0.062561415 -0.025029184 0.030399892 -0.03598409 -0.0038138719 -0.012181469 0.010138359
0.02573502 -0.0005645149 -0.002910461 0.013765948 0.023158135 -0.03254785 -0.026848337 -0.034100622
-0.003291803 -0.0036467991 0.027467199 -0.0036230376 -0.08447205 -0.020769166 0.008726272 0.029114554
0.031133505 -0.007077793 0.0040684803 0.04655262 -0.0315511 0.015696736 -0.05279399 0.024662474
0.023910414 0.052942004 -0.016604397 -0.007758977 -0.017751629 0.024702635 -0.005930735 -0.051933702
0.024931801 -0.0055019693 0.021242518 0.0018456924 0.013590564 -0.024315873 0.041629557 0.004131641
0.018967405 -0.012376398 0.009953984 -0.030951556 -0.015860695 0.006114336 0.03029047 -0.0071039866
-0.05035048 0.012952992 -0.031315316 0.005598449 -0.056097142 0.0130684655 0.036738727 0.023819646
-0.0090265935 0.0067903344 0.017630026 -0.028948633 -0.004448213 0.003715482 -0.01623239 -0.027435092
0.0040322896 -0.020250838 0.001593506 0.0023768058 0.036947925 -0.013624687 -0.056319084 -0.019872384
0.03528099 0.016587237 0.03821146 -0.038570117 -0.020582508 0.040501956 -0.06283632 -0.019413523
-0.011232053 0.009590445 -0.0015629029 -0.022025226 0.005064371 0.02499261 -0.047675002 0.029742675
-0.0074900347 -0.020110037 -0.053557716 0.003963629 0.003362631 -0.022381447 -0.013706925 -0.001154216
0.02478187 -0.0023138293 0.017287273 0.026811551 -0.0039167283 -0.019887239 -0.012012945 0.052658234
-0.029138584 -0.021526294 0.014791188 -0.01837806 -0.025165126 0.013713879 0.02488956 -0.04271348
-0.054830305 -0.0382453 0.016034894 -0.012505624 -0.019545242 0.0026241404 0.008772098 0.007915139
-0.02449513 -0.02523724 0.017022105 0.015752641 -0.013451737 -0.012885895 -0.0006904352 -0.025404613
-0.024341924 -0.014853059 -0.0068302373 -0.0123022925 0.008176432 -0.033482693 -0.010129228 0.021018779
0.02771727 0.016800527 -0.0009542975 0.096366815 0.026116509 -0.0036087732 0.044771377 0.025914771
-0.010471854 -0.00012624686 -0.015342713 0.002493935 0.041956574 0.006508655 -0.036007244 0.04276458
-0.02881195 0.0035065766 0.020228751 -0.010733634 -0.009266374 0.00095260085 0.036755264 0.047711164
-0.005989054 0.07749427 0.05521277 0.00032622943 -0.026669888 0.039954733 0.03004422 -0.06535965
00000000: f3f7 973a 09c3 2a3d 85f4 b73a 4440 05bd
00000010: 9ce3 783b 708b f53c 349c 273d d9bb b1bc
00000020: e964 3abd ed5d 803c 2c22 473c 9316 9f3c
00000030: b93a 8dbc e0fe dc3b 36d3 7bbc 44a0 0bbd
00000040: 0689 c1bc 254f c8bb 4f60 1e3d 5e9e 08bd
00000050: 585e cebc 5a6d 6a3c 760b 793b 1211 86bd
00000060: a348 3bbd 8e87 14bd 7b44 943b 5b16 0ebd
00000070: b962 e8bc ebe6 233b 2bcb 0ebd dc48 a7bc
00000080: 7da6 afbc f7ae 99bc 2707 403d 025d f4bc
00000090: 41c8 973c 0ce5 43bd 1a93 afbc 854a 763c
000000a0: b051 dfbc f6b6 253b d5fb 913d 7ed9 94bc
000000b0: 71e1 91ba 8e0b a4bc 1fd7 f3bc 1234 43bd
000000c0: 5889 97bb ce09 27bc 8a09 50bd 5439 093d
000000d0: 8443 e3bc 84fd 9ebc 703a 0a3d 36cb 29bc
000000e0: d841 cfbb 656b 0c3c ccdc f9bc 7540 95bc
000000f0: 65ed 343b 11cc b8ba 8e53 9c3c cd38 4b3c
00000100: 7287 573c b9cd 1f3d 83c7 b03c 5379 06bd
00000110: 5c88 b73c 01c2 6cba 49c3 d5bc 0441 4e3c
00000120: 1a22 adbc 6d89 9bbc 3f77 3f3c cc01 4dbc
00000130: 69ac 51bc f48b d63c 9090 2e3c 2fbb 19bc
00000140: 3cd2 c4bc 3320 80bd 010a cdbc 3209 f93c
00000150: 0e64 13bd 27f2 79bb c994 47bc 5c1b 263c
00000160: 40d2 d23c f4fb 13ba 6fbd 3ebb 928a 613c
00000170: 21b6 bd3c e550 05bd 0bf1 dbbc 18ad 0bbd
00000180: 4abb 57bb 23ff 6ebb e402 e13c 7c70 6dbb
00000190: afff acbd 1924 aabc a3f8 0e3c a581 ee3c
000001a0: b10b ff3c d5ec e7bb e350 853b f6ad 3e3d
000001b0: ba3b 01bd 7196 803c 833e 58bd f508 ca3c
000001c0: c6df c33c b7d9 583d f205 88bc 043f febb
000001d0: dd6b 91bc 2e5d ca3c 9c56 c2bb 6fb8 54bd
000001e0: c73d cc3c dd49 b4bb ca04 ae3c 29eb f13a
000001f0: f5aa 5e3c 1532 c7bc c183 2a3d b762 873b
00000200: 8861 9b3c 60c6 4abc 0916 233c 1e8e fdbc
00000210: 4aee 81bc c55a c83b b823 f83c 8fc8 e8bb
00000220: 4e3c 4ebd c938 543c 7d44 00bd 3273 b73b
00000230: 1ec6 65bd 1e1d 563c 597b 163d 6b21 c33c
00000240: 47e4 13bc 7481 de3b d86c 903c af25 edbc
00000250: 51c2 91bb 727f 733b caf9 84bc 8fbf e0bc
00000260: 4c21 843b 16e5 a5bc 30dd d03a 2fc4 1b3b
00000270: b556 173d 143a 5fbc d7ae 66bd 69cb a2bc
00000280: cd82 103d f5e1 873c 9f83 1c3d b3fb 1dbd
00000290: a69c a8bc 61e5 253d 54b0 80bd 1c09 9fbc
000002a0: a506 38bc 3e21 1d3c 52da ccba 3f6e b4bc
000002b0: 06f3 a53b 4dbd cc3c dd46 43bd e9a6 f33c
000002c0: f76e f5bb cebd a4bc 565f 5bbd 54e1 813b
000002d0: 965f 5c3b 4c59 b7bc 0393 60bc 1049 97ba
000002e0: 5903 cb3c 9da3 17bb 0a9e 8d3c e6a3 db3c
000002f0: e657 80bb 90ea a2bc f1d1 44bc 29b0 573d
00000300: 0ab4 eebc e957 b0bc bd56 723c 968d 96bc
00000310: 1827 cebc 2db0 603c 31e5 cb3c 54f4 2ebd
00000320: be95 60bd 1ba7 1cbd 9c5b 833c 64e4 4cbc
00000330: 581d a0bc c5f9 2b3b d9b8 0f3c 80ae 013c
00000340: 03aa c8bc 54be cebc f171 8b3c af0b 813c
00000350: ad64 5cbc 5c1f 53bc 52fe 34ba 561d d0bc
00000360: b768 c7bc 3f5a 73bc 2fd0 dfbb 8e8f 49bc
00000370: 71f6 053c 2625 09bd 10f5 25bc 932f ac3c
00000380: 540f e33c 42a1 893c d229 7aba f75b c53d
00000390: 4af2 d53c 2b81 6cbb 3162 373d 374b d43c
000003a0: 2492 2bbc 2261 04b9 0160 7bbc 4971 233b
000003b0: a8da 2b3d 8e46 d53b 557c 13bd ea29 2f3d
000003c0: 0a07 ecbc 98ce 653b c4b6 a53c 20dc 2fbc
000003d0: fdd1 17bc f6b7 793a b08c 163d c86c 433d
000003e0: d43f c4bb 51b5 9e3d c926 623d c609 ab39
000003f0: cf7a dabc 93a7 233d 4c1f f63c 48db 85bd

contracts.0.lay.blocks.0.1.weight f4 [16]
0.03431786 -0.019598572 0.028670782 -0.02339644 -0.060243964 0.02796534 -0.028431363 0.031287014
-0.031459965 0.023576258 0.043160718 -0.044696666 0.038526703 0.014480292 -0.023060707 0.042502735
00000000: e290 0c3d 2f8d a0bc fdde ea3c e4a9 bfbc
00000010: 60c2 76bd 9217 e53c e4e8 e8bc d026 003d
00000020: 2adc 00bd ff22 c13c 4bc9 303d da13 37bd
00000030: 2dce 1d3d bf3e 6d3c cfe9 bcbc 5917 2e3d

contracts.0.lay.blocks.0.1.bias f4 [16]
-0.0057251034 0.011943609 -0.00286949 0.014544662 0.010968925 -0.003186043 0.014578693 -0.00073256064
-0.0027378662 -0.027605632 -0.020251911 -0.010929781 -0.004598046 0.0077321758 0.0052714474 -0.005986352
00000000: a699 bbbb 21af 433c 0e0e 3cbb bc4c 6e3c
00000010: 02b7 333c eecc 50bb 78db 6e3c 5009 40ba
00000020: c66d 33bb 3525 e2bc 56e7 a5bc d312 33bc
00000030: 35ab 96bb 315e fd3b 1bbc ac3b 2929 c4bb

contracts.0.lay.blocks.0.1.running_mean f4 [16]
-0.0163499 -0.001811293 0.0034353954 0.002769067 0.01147272 -0.016710196 0.0051923203 -0.026740767
0.0043388302 -0.0193731 -0.0016538324 0.01079009 -0.027740795 0.005963826 -0.011833767 0.0058732773
00000000: 3af0 85bc e868 edba 5f24 613b 3c79 353b
00000010: 13f8 3b3c d2e3 88bc 5724 aa3b 740f dbbc
00000020: bf2c 8e3b 56b4 9ebc 68c5 d8ba ebc8 303c
00000030: aa40 e3bc 336c c33b 6be2 41bc 9f74 c03b

contracts.0.lay.blocks.0.1.running_var f4 [16]
2.8103967e-05 7.2565535e-06 2.6944128e-05 2.3026929e-05 0.0002637882 2.1523512e-05 3.3296947e-05 8.961117e-05
1.1968785e-05 1.8556453e-05 7.0802153e-06 5.630326e-05 0.0001387349 2.878888e-05 1.1579454e-05 9.368426e-06
00000000: cfc0 eb37 527d f336 1306 e237 f429 c137
00000010: 0e4d 8a39 648d b437 53a8 0b38 a1ed bb38
00000020: 8acd 4837 aea9 9b37 9692 ed36 2a27 6c38
00000030: 5e79 1139 a67f f137 6045 4237 152d 1d37

contracts.0.lay.blocks.1.0.weight f4 [16, 16, 3, 3]
-0.03090012 0.04322977 2.457332e-05 -0.00042736932 0.015323332 0.028949302 0.0009685136 0.01911473
0.01339349 -0.029395135 -0.009704833 0.04212786 0.030447554 -0.045264516 -0.03448938 -0.01439018
0.041358955 -0.02991035 0.0017307074 -0.007106192 0.036919598 -0.042193417 0.021817211 -0.008304669
0.025474563 -0.0147566665 -0.010802288 -0.011292681 0.031197103 0.0027123643 -0.043138586 0.020771867
0.010353215 -0.048387617 -0.034635004 -0.0010783887 0.030451398 0.007440772 0.01022238 0.0007237561
0.021954183 0.060192823 -0.009417062 0.0025133737 -0.0074423584 -0.005319689 -0.019767977 -0.03677635
0.046712328 -0.04256018 0.0015013963 0.0318722 -0.0012396266 0.03840256 0.04681423 0.029692166
-0.026343055 0.025404291 0.004305601 0.023464376 -0.0012633714 0.0006379711 0.022722824 -0.013155085
0.0074083 -0.00572194 -0.037829533 -0.06372557 -0.047283128 -0.027245075 -0.004556591 -0.03689404
0.023810934 0.014496783 -0.0009023648 0.0037366254 0.024933202 0.018969724 -0.008643782 0.020376962
0.001576159 -0.04004679 -0.044037662 -0.030065618 0.016744696 -0.0059213173 -0.049119733 -0.012171687
-0.007832387 -0.0015963949 -0.0023885744 0.019999593 0.023953723 -0.073687255 -0.05641846 -0.0033034566
0.045132175 0.00025120523 -0.019002989 -0.013220689 0.004884324 0.044527445 0.01246902 -0.051986624
0.008241187 0.053329416 0.022265226 0.05693294 0.06479885 0.054620195 0.03690487 0.012795229
0.007960373 0.016107414 -0.03464189 -0.0314485 0.02971904 0.0022018675 -0.021019008 -0.005091845
0.024934268 0.01930049 0.016277866 0.013705846 0.02163999 0.011262692 0.0023915851 0.023709953
0.017790258 -0.028717749 -0.031931937 0.039663844 0.004311157 0.020013962 0.01293854 -0.03338146
-0.0110112745 -0.018421248 -0.0643736 0.03127853 0.0128962435 0.03300317 -0.050371926 -0.034870256
0.036494583 0.009032438 -0.01100225 -0.012540375 -0.00782909 -0.031693876 0.018041532 0.04468118
-0.01775081 -0.041355446 -0.035296153 -0.03935736 -0.027169552 -0.0030026934 -0.020203808 -0.0022371018
-0.042492814 0.031153781 0.048430227 0.0050809043 0.014472895 0.02511214 0.013657764 -0.0116185825
0.0050774612 -0.014527884 -0.03140932 -0.021380978 0.01687524 -0.004789753 -0.011191925 0.03477555
0.015402064 0.02999041 0.014747074 -0.03928289 -0.0064602625 -0.015389758 -0.0037618792 0.050572716
0.026969276 -0.008963625 -0.00288941 0.008990983 -0.0060597793 0.02256375 -0.010744649 -0.00365851
0.022329157 0.020619314 0.006843654 -0.04543157 -0.040960297 -0.015089358 -0.024905056 -0.019485002
0.0067955954 -0.0059924047 -0.052399356 -0.003596374 0.0037042224 0.0029906307 0.024234055 -0.022747489
0.009061328 -0.008999909 0.021451475 0.008321744 0.008554972 0.01169742 0.0014556516 -0.028143877
0.0031800598 -0.04772295 0.03715295 0.05260866 -0.025081683 -0.0010014098 0.014442823 0.012025903
-0.0038896569 -0.0017888052 -0.005818802 0.00556135 0.028847989 0.009914616 -0.024306139 0.007696309
-0.0049422495 -0.024996135 0.008743517 0.014876955 -0.030108258 0.008815108 -0.032591857 0.013160085
-0.021060973 -0.0079058185 0.018504914 -0.008182114 0.022322783 0.016254393 -0.003017006 0.032310225
0.017983992 0.0035109932 -0.06622027 -0.022400212 0.034323134 -0.0041148406 0.013718106 -0.011801756
00000000: 4022 fdbc b311 313d ce22 ce37 8a10 e0b9
00000010: b60e 7b3c 1627 ed3c d9e3 7d3a 7f96 9c3c
00000020: 5e70 5b3c 11ce f0bc 0501 1fbc 438e 2c3d
00000030: 266d f93c 4967 39bd bc44 0dbd cac4 6bbc
00000040: 0268 293d 8d06 f5bc e7d8 e23a 0fdb e8bb
00000050: 0139 173d 01d3 2cbd 02ba b23c 4e10 08bc
00000060: 08b0 d03c f2c5 71bc 14fc 30bc f004 39bc
00000070: 1191 ff3c ecc1 313b 16b2 30bd c329 aa3c
00000080: 88a0 293c 1832 46bd 6fdd 0dbd b858 8dba
00000090: 3675 f93c b8d1 f33b c57b 273c 73ba 3d3a
000000a0: 42d9 b33c c08c 763d 054a 1abc 6ab7 243b
000000b0: 07df f3bb c950 aebb 74f0 a1bc cca2 16bd
000000c0: 6d55 3f3d 9553 2ebd 80ca c43a 6d8c 023d
000000d0: f77a a2ba 014c 1d3d 47c0 3f3d fc3c f33c
000000e0: 64cd d7bc a91c d03c 0016 8d3b 5d38 c03c
000000f0: b697 a5ba 843d 273a 3725 ba3c 6d88 57bc
00000100: 53c1 f23b 1d7f bbbb 24f3 1abd 8d82 82bd
00000110: f4ab 41bd 1031 dfbc 754f 95bb 341e 17bd
00000120: 260f c33c ea83 6d3c ad8c 6cba 2ce2 743b
00000130: b740 cc3c 6566 9b3c a69e 0dbc 96ed a63c
00000140: 1f97 ce3a 1a08 24bd d660 34bd 2c4c f6bc
00000150: 2c2c 893c 9c07 c2bb c631 49bd c16b 47bc
00000160: 6a53 00bc 203e d1ba a189 1cbb 30d6 a33c
00000170: 993a c43c 58e9 96bd 0b17 67bd ce7e 58bb
00000180: 84dc 383d 32b4 8339 28ac 9bbc 979b 58bc
00000190: ae0c a03b 6962 363d dc4a 4c3c edef 54bd
000001a0: 0b06 073c f26f 5a3d 9065 b63c 8432 693d
000001b0: 42b5 843d 6db9 5f3d 9029 173d 15a3 513c
000001c0: 396c 023c b2f3 833c a8e4 0dbd 24d0 00bd
000001d0: 5875 f33c 354d 103b 0e30 acbc 7ed9 a6bb
000001e0: f342 cc3c 101c 9e3c 2959 853c 7c8e 603c
000001f0: 5946 b13c 2787 383c 24bc 1c3b 603b c23c
00000200: e0bc 913c 7c41 ebbc 10cb 02bd 8e76 223d
00000210: 9b44 8d3b 52f4 a33c 2cfc 533c ffba 08bd
00000220: a268 34bc 28e8 96bc 4ed6 83bd ea1d 003d
00000230: c44a 533c 552e 073d cb52 4ebd 1dd4 0ebd
00000240: 587b 153d cafc 133c c842 34bc 2576 4dbc
00000250: 9545 00bc 70d1 01bd d6cb 933c 9d03 373d
00000260: 266a 91bc 5464 29bd b392 10bd 2f35 21bd
00000270: ae92 debc d6c8 44bb 7582 a5bc 579c 12bb
00000280: f20c 2ebd 3736 ff3c c65e 463d b77d a63b
00000290: b91f 6d3c fab7 cd3c d0c4 5f3c de5b 3ebc
000002a0: d560 a63b 5d06 6ebc 0fa7 00bd 2927 afbc
000002b0: f13d 8a3c 5cf3 9cbb 565e 37bc cf70 0e3d
000002c0: f058 7c3c 73ae f53c b69d 713c 18e7 20bd
000002d0: 9cb0 d3bb 5325 7cbc dc89 76bb 5625 4f3d
000002e0: acee dc3c 2bdc 12bc 415c 3dbb ea4e 133c
000002f0: 1d91 c6bb 9dd7 b83c 530a 30bc 9dc3 6fbb
00000300: a3eb b63c d6e9 a83c bb40 e03b 7416 3abd
00000310: fcc5 27bd 5b39 77bc b005 ccbc 039f 9fbc
00000320: 96ad de3b ef5b c4bb b5a0 56bd 25b1 6bbb
00000330: 8ac2 723b 75fe 433b 7f86 c63c f158 babc
00000340: f775 143c 5b74 13bc 01bb af3c ed57 083c
00000350: 272a 0c3c 89a6 3f3c 90cb be3a fd8d e6bc
00000360: 8d68 503b 2479 43bd b12d 183d 2e7c 573d
00000370: 1a78 cdbc bd41 83ba 97a1 6c3c 4b08 453c
00000380: 9de9 7ebb 5876 eaba a6ab bebb fc3b b63b
00000390: 9e52 ec3c ea70 223c ab1d c7bc 5231 fc3b
000003a0: 98f2 a1bb b2c4 ccbc f840 0f3c 79be 733c
000003b0: 98a5 f6bc 3e6d 103c 0a7f 05bd 669d 573c
000003c0: 1088 acbc 6887 01bc 9e97 973c 460e 06bc
000003d0: 45de b63c ef27 853c f6b8 45bb ba57 043d
000003e0: 2a53 933c b118 663b 7e9e 87bd a680 b7bc
000003f0: 6a96 0c3d c9d5 86bb e8c1 603c 275c 41bc

contracts.0.lay.blocks.1.1.weight f4 [16]
-0.047266863 -0.007433246 0.025766615 -0.019713813 0.04146729 -0.03481294 0.017511137 -0.019041015
-0.055230547 0.02343033 -0.0188801 -0.055969734 -0.044414964 0.027748147 0.054462068 0.05160199
00000000: e69a 41bd 9692 f3bb 8214 d33c dd7e a1bc
00000010: 9bd9 293d 0398 0ebd 8473 8f3c e7fb 9bbc
00000020: 6d39 62bd f7f0 bf3c 71aa 9abc 8540 65bd
00000030: 77ec 35bd 1550 e33c 9e13 5f3d 9c5c 533d

contracts.0.lay.blocks.1.1.bias f4 [16]
-0.024414642 -0.01814816 -0.0069567524 -0.017315358 0.0010018896 0.0036146946 -0.024230396 0.01336202
-0.00025203454 0.011599332 0.006650277 -0.009417769 -0.010300119 0.007899176 0.01016189 0.0029950496
00000000: 3701 c8bc 73ab 94bc 78f5 e3bb f0d8 8dbc
00000010: d651 833a 83e4 6c3b d37e c6bc 60ec 5a3c
00000020: 8123 84b9 200b 3e3c 91ea d93b fc4c 1abc
00000030: d5c1 28bc 8c6b 013c 0e7e 263c 9848 443b

contracts.0.lay.blocks.1.1.running_mean f4 [16]
0.0068882927 -0.0007733612 0.0011774759 0.0043422324 -0.0054775295 -0.013249068 -0.006984009 -4.7609068e-05
-0.007220664 -0.00650006 0.0025922742 0.0121537 -0.00843321 -0.0045312666 -0.012762853 0.005500557
00000000: 30b7 e13b 64bb 4aba 8955 9a3a 4949 8e3b
00000010: d97c b3bb 9e12 59bc 1dda e4bb d9af 47b8
00000020: 529b ecbb 75fe d4bb 25e3 293b 5020 473c
00000030: 722b 0abc 057b 94bb 491b 51bc 043e b43b

contracts.0.lay.blocks.1.1.running_var f4 [16]
7.5726166e-05 9.706555e-06 5.66969e-05 2.4390607e-05 3.720935e-05 0.00024549567 2.1273105e-05 3.429617e-05
0.00025399306 3.5265202e-05 5.885244e-05 7.0186805e-05 7.071273e-05 0.00018587713 0.0002771903 0.00023548465
00000000: 2dcf 9e38 56d9 2237 d5cd 6d38 6e9a cc37
00000010: 3c11 1c38 dfb5 8039 a573 b237 3bd9 0f38
00000020: 5f2a 8539 b9e9 1338 54d8 7638 4131 9338
00000030: 9c4b 9438 03e8 4239 da53 9139 6eec 7639

contracts.0.lay.shortcut.0.weight f4 [16, 8, 1, 1]
0.017128441 -0.0013612348 0.015779702 -0.010179007 -0.030754227 0.0028132084 -0.0012141826 -0.036380447
-0.006834145 0.026836624 0.016486216 -0.01959925 -0.0016636053 -0.018044837 0.024065409 0.025618175
-0.023462867 0.014877663 0.03843845 0.014984657 -0.013769538 -0.005061844 0.036000364 0.06624824
-0.022066347 0.04177689 -0.025164442 0.012993708 -0.036454592 -0.07617894 0.013177205 0.02839905
-0.03531727 0.007869618 0.0033285487 -0.0037326636 0.015884668 -0.0051173964 0.047288753 0.029393008
0.0048500146 -0.0046936087 -0.003290836 -0.006050632 0.02300662 0.038287856 0.019820575 0.027371187
-0.02061335 0.059833914 0.051256485 -0.017590167 -0.025198767 -0.020894649 0.024411082 -0.011505339
0.035481784 -0.028164903 0.0004982892 0.03753868 -0.018264562 0.017707746 -0.022884391 -0.0014407235
-0.024122061 -0.04751002 0.008229902 -0.0038317838 -0.01915341 -0.008506288 -0.021119772 -0.030348662
0.000580765 -0.030894972 0.010316054 0.00032853274 -0.004126807 -0.022510137 -0.054207355 -0.03323335
0.0020565395 0.01062725 -0.006798012 0.03220885 0.06389459 0.005150144 -0.012239226 0.023802541
0.036902804 0.012948343 0.024013124 0.03225286 0.022888077 -0.0047911284 0.038497645 0.0020745895
-0.021111047 -0.021954903 0.0060682674 0.02414914 0.008102007 -0.0049696644 0.011442673 -0.016557723
-0.017100591 0.008982261 0.012828437 0.014193343 -0.02701673 -0.0011240306 0.070984006 0.02057183
0.009460675 0.01752792 -0.0031576336 0.048905056 0.019735146 0.03664723 -0.05053054 -0.017873676
0.019953065 -0.012477861 0.0139210485 -0.016700843 -0.009442999 0.00042337712 -0.019925356 0.024665354
00000000: f250 8c3c 766b b2ba 6f44 813c dac5 26bc
00000010: 4af0 fbbc ce5d 383b 3525 9fba aa03 15bd
00000020: f7f0 dfbb 7bd8 db3c 1a0e 873c 9b8e a0bc
00000030: 550d daba c4d2 93bc d224 c53c 35dd d13c
00000040: 3335 c0bc 71c1 733c a371 1d3d 3582 753c
00000050: a199 61bc d3dd a5bb 1e75 133d 28ad 873d
00000060: 7cc4 b4bc 3f1e 2b3d a925 cebc 90e3 543c
00000070: 6951 15bd b403 9cbd 34e5 573c 20a5 e83c
00000080: d7a8 10bd 92ef 003c c823 5a3b b49f 74bb
00000090: 9020 823c d5af a7bb dab1 413d 9bc9 f03c
000000a0: dfec 9e3b d8cc 99bb 11ab 57bb 6144 c6bb
000000b0: 6178 bc3c bad3 1c3d c25e a23c 8a39 e03c
000000c0: 54dd a8bc 6814 753d 52f2 513d 4119 90bc
000000d0: a56d cebc 412b abbc c0f9 c73c e480 3cbc
000000e0: 5955 113d 15ba e6bc 9f9f 023a 29c2 193d
000000f0: 909f 95bc d60f 913c 0c78 bbbc a9d6 bcba
00000100: a19b c5bc de99 42bd b6d6 063c aa1e 7bbb
00000110: 9de7 9cbc f55d 0bbc 5f03 adbc c29d f8bc
00000120: 7b3e 183a 7417 fdbc ab04 293c eb3e ac39
00000130: 2b3a 87bb 2e67 b8bc 8808 5ebd b11f 08bd
00000140: 02c7 063b eb1d 2e3c dcc1 debb 6ded 033d
00000150: 2bdb 823d 8ac2 a83b 0987 48bc 8cfd c23c
00000160: 6527 173d 4925 543c 2cb7 c43c 931b 043d
00000170: c77f bb3c e6fe 9cbb b5af 1d3d d6f5 073b
00000180: 13f1 acbc c5da b3bc 51d8 c63b 6bd4 c53c
00000190: 48be 043c 91d8 a2bb 0d7a 3b3c 10a4 87bc
000001a0: 8a16 8cbc 552a 133c 5d2e 523c 328b 683c
000001b0: 3052 ddbc 3554 93ba 1060 913d 4186 a83c
000001c0: f200 1b3c b696 8f3c 4df0 4ebb ab50 483d
000001d0: 9aab a13c 681b 163d 1df9 4ebd d16b 92bc
000001e0: 9c74 a33c f16f 4cbc 1c15 643c 35d0 88bc
000001f0: cfb6 1abc b7f8 dd39 803a a3bc ff0e ca3c

contracts.0.lay.shortcut.1.weight f4 [16]
0.0021977907 0.016009232 0.03147306 -0.010250391 0.0272313 -0.0043734275 -0.022469832 -0.029130548
-0.018748283 -0.024806172 -0.027846647 -0.020884508 -0.0076806415 0.036651716 0.0118491445 -0.0035110046
00000000: cf08 103b cb25 833c e5e9 003d 42f1 27bc
00000010: 2d14 df3c f84e 8fbb a712 b8bc 30a3 eebc
00000020: 0096 99bc 5036 cbbc a71e e4bc fd15 abbc
00000030: e4ad fbbb 1c20 163d ea22 423c e218 66bb

contracts.0.lay.shortcut.1.bias f4 [16]
-0.024414642 -0.01814816 -0.0069567524 -0.017315358 0.0010018896 0.0036146946 -0.024230396 0.01336202
-0.00025203454 0.011599332 0.006650277 -0.009417769 -0.010300119 0.007899176 0.01016189 0.0029950496
00000000: 3701 c8bc 73ab 94bc 78f5 e3bb f0d8 8dbc
00000010: d651 833a 83e4 6c3b d37e c6bc 60ec 5a3c
00000020: 8123 84b9 200b 3e3c 91ea d93b fc4c 1abc
00000030: d5c1 28bc 8c6b 013c 0e7e 263c 9848 443b

contracts.0.lay.shortcut.1.running_mean f4 [16]
9.796491e-06 -0.002481094 -0.0030527082 -0.007939743 -0.0022072555 0.001033035 -0.0016288825 0.0013452559
0.0010703069 0.0028743153 0.0037755063 0.00055312883 0.0010458513 -0.004736359 0.005722034 4.429791e-06
00000000: 9c5b 2437 da99 22bb f20f 48bb b215 02bc
00000010: 9aa7 10bb e766 873a 3a80 d5ba 4c53 b03a
00000020: 8a49 8c3a 025f 3c3b 7c6e 773b d9ff 103a
00000030: f214 893a 7633 9bbb e67f bb3b 9da3 9436

contracts.0.lay.shortcut.1.running_var f4 [16]
2.36086e-06 9.13712e-06 2.0218304e-05 1.334615e-05 1.3420825e-05 4.0250927e-07 1.2416002e-05 1.1785437e-05
9.542022e-07 4.579881e-06 8.0869114e-07 8.28691e-07 1.3686329e-07 9.138448e-06 1.3835014e-05 9.529277e-08
00000000: 446f 1e36 a24b 1937 7a9a a937 47e9 5f37
00000010: 012a 6137 7418 d834 534e 5037 11ba 4537
00000020: 2312 8035 e1ac 9936 d514 5935 3673 5e35
00000030: b2f4 1234 5651 1937 ef1c 6837 c1a3 cc33

contracts.0.lay.bnorm.weight f4 [16]
0.024420742 0.036167488 -0.018357772 0.014417975 0.049514215 -0.032382373 -0.018420765 0.026186038
-0.046354935 0.030630622 0.043224104 0.02504719 0.028919045 -0.0395124 0.029608987 0.04615721
00000000: 020e c83c 5c24 143d 0a63 96bc 5f39 6c3c
00000010: 6bcf 4a3d 61a3 04bd 25e7 96bc 1a84 d63c
00000020: acde 3dbd 12ed fa3c c20b 313d c42f cd3c
00000030: a2e7 ec3c c1d7 21bd 8c8e f23c 580f 3d3d

contracts.0.lay.bnorm.bias f4 [16]
-0.024687419 0.037722163 0.0077018947 -0.054453075 -0.049003903 0.016505916 0.0023629195 0.05716538
-0.027115613 -0.027537972 -0.0074755014 -0.013197453 -0.010701094 0.04794869 0.0052599176 -0.035321932
00000000: 453d cabc 8e82 1a3d 2d60 fc3b 300a 5fbd
00000010: 51b8 48bd 6a37 873c 36db 1a3b 3f26 6a3d
00000020: 9021 debc 5097 e1bc 0df5 f4bb 213a 58bc
00000030: a453 2fbc d865 443d 635b ac3b bbad 10bd

contracts.0.lay.bnorm.running_mean f4 [16]
-0.0072484463 -0.00708656 0.00025715915 -0.0064274417 0.019311314 0.016571878 -0.009425628 0.028452164
0.021586351 0.02467527 0.015021621 0.0054837884 0.0026279143 0.01674341 0.034301102 0.022331685
00000000: 6084 edbb 6036 e8bb 51d3 8639 4a9d d2bb
00000010: c332 9e3c bfc1 873c f36d 1abc 8314 e93c
00000020: dcd5 b03c cb23 ca3c 3f1d 763c 5ab1 b33b
00000030: 1639 2c3b 7a29 893c 507f 0c3d f0f0 b63c

contracts.0.lay.bnorm.running_var f4 [16]
0.00031573378 5.926763e-06 0.0001629484 3.672833e-05 0.0010684262 0.0005310318 2.7466634e-05 0.0004303327
0.0012126124 0.00033284776 0.0002627525 0.0005983465 0.000293224 0.0002755088 0.0021235924 0.0010981215
00000000: 1289 a539 82de c636 21dd 2a39 be0c 1a38
00000010: 6f0a 8c3a f134 0b3a 2668 e637 479e e139
00000020: 85f0 9e3a 1282 ae39 0bc2 8939 5bda 1c3a
00000030: dcbb 9939 2a72 9039 f82b 0b3b d8ee 8f3a

contracts.1.lay.blocks.0.0.weight f4 [32, 16, 3, 3]
-0.062561646 -0.035395205 -0.03818049 0.044990495 0.022520201 -0.07053417 0.09457221 0.045064487
0.019572886 -5.2516152e-05 0.017626718 0.02216728 -0.0011607432 -0.020143412 0.05247399 -0.036768712
-0.011829104 0.03620128 -0.04177736 -0.01779114 -0.03747623 0.074438564 -0.012638371 -0.036008775
0.077428214 0.005387582 -0.06315704 0.029219486 -0.01532771 -0.042848393 0.056744404 0.005111656
-0.052143227 0.042430796 -0.0062184962 -0.09685579 -0.03933629 -0.010162703 0.02829115 -0.012609812
0.03829625 0.0022441852 -0.020694098 -0.0113914935 -0.009648766 0.0021958642 0.015135097 -0.01476478
0.029198946 -0.017566236 0.022572225 0.011967143 -0.005215821 -0.0007534809 -0.021286856 0.0019709119
0.0055304007 0.016778199 -0.022806143 -0.0012322238 0.010295341 -0.05411891 -0.038418684 0.025087671
0.015700348 -0.0031038506 0.002261026 -0.0101281535 0.047388542 0.006316793 0.013877829 -0.04304743
-0.010441567 -0.004749118 -0.048137236 0.0036718096 -0.0084524285 0.0031647424 -0.043425575 0.003591429
-0.0019566005 -0.024917185 -0.04708693 -0.027099755 -0.019929145 0.009613695 -0.02568487 -0.014615853
0.020395476 0.028952189 -0.013036693 0.03736338 0.017421085 0.011584392 0.01788934 -0.0138537325
-0.002930513 0.047298517 0.00979636 0.046972286 -0.010133788 0.00022328584 0.07112009 0.0052372213
0.04124953 0.031603716 0.04579143 0.04444709 0.0022289082 0.015316576 0.04330899 0.033154696
0.0077099865 -0.033138014 0.039008666 -0.017761352 0.021805959 -0.02182059 0.013378094 -0.003259939
-0.012964113 0.022689672 -0.03296124 0.029411666 -0.05068762 -0.026603868 0.04231294 -0.0006972189
-0.059172805 0.05016987 0.012376711 -0.007082698 -0.012595103 -0.0012706976 0.0062880265 -0.0215183
0.007335517 -0.014418392 0.044031695 -0.009320076 -0.029040474 0.06673943 -0.007908872 -0.018796246
-0.028430438 -0.046019558 -0.014648274 -0.07788851 -0.026054228 0.02820681 -0.026545385 0.015087708
0.009044931 0.019052701 0.022388637 0.035552155 0.018072935 -0.0021538048 -0.026428051 0.06625941
-0.0011013423 -0.009139894 0.051693648 -0.050830677 -0.09206003 -0.008672949 0.04819085 0.0064197597
-0.012878803 -0.061508466 0.03318354 -0.05301436 -0.03838599 -0.03216145 -0.004541222 -0.06623455
0.020284643 -0.0050538043 0.042311676 0.028560994 -0.03837147 0.029670417 0.0029068214 -0.011057232
-0.014557741 -0.037291538 0.013253083 -0.01146703 -0.0391051 -0.109046146 0.0034271264 -0.068536684
-0.047144525 0.010105022 -0.025236253 -0.0566405 -0.025592433 -0.012132679 -0.033568498 0.029896446
0.022124195 0.041309725 0.045420762 -0.051733594 0.018605875 -0.01421801 0.042385194 -0.060290363
0.040492218 0.0008577817 0.023365084 -0.009790692 -0.027214112 0.056339003 -0.010576262 0.03041514
-0.0036275773 0.0047426024 0.023563014 0.018042115 -0.0034462078 0.0013459629 -0.03231227 -0.004409661
0.033904698 0.0053423997 0.030118879 -0.006501885 0.002730923 -0.023404831 -0.037051663 0.023486031
-0.0026021602 -0.016922064 -0.05671879 -0.031090315 0.019966561 0.005247613 -0.009427244 0.02355176
0.041736256 0.012578294 0.022699788 0.011966602 -0.014307288 -0.03893886 -0.04419279 0.01342088
0.011772964 -0.015931174 0.028578006 0.033063117 0.045106214 -0.022418207 -0.007752013 0.02505652
00000000: 5220 80bd 90fa 10bd 2563 1cbd f447 383d
00000010: 497c b83c 3874 90bd 13af c13d 8a95 383d
00000020: 5157 a03c ca44 5cb8 e865 903c 2898 b53c
00000030: 1424 98ba cc03 a5bc f7ee 563d ca9a 16bd
00000040: dcce 41bc cb47 143d bd1e 2bbd babe 91bc
00000050: ad80 19bd 3f73 983d 2c11 4fbc f07d 13bd
00000060: af92 9e3d 508a b03b 7a58 81bd b45d ef3c
00000070: 1321 7bbc cc81 2fbd d26c 683d ae7f a73b
00000080: 2394 55bd eacb 2d3d 87c4 cbbb 545c c6bd
00000090: 171f 21bd 7781 26bc d8c2 e73c 6399 4ebc
000000a0: 87dc 1c3d 2e13 133b ab86 a9bc 63a3 3abc
000000b0: dc15 1ebc 7de8 0f3b 33f9 773c fae7 71bc
000000c0: a132 ef3c 11e7 8fbc 63e9 b83c d611 443c
000000d0: 7ae9 aabb 3f85 45ba c661 aebc 6a2a 013b
000000e0: 5d38 b53b 6f72 893c f3d3 babc 9282 a1ba
000000f0: caad 283c caab 5dbd e95c 1dbd a984 cd3c
00000100: 049e 803c f969 4bbb b92d 143b 8ef0 25bc
00000110: 7d1a 423d 1afd ce3b d55f 633c 8152 30bd
00000120: 1b13 2bbc 7d9e 9bbb 8d2b 45bd bea2 703b
00000130: 0e7c 0abc 9167 4f3b 04df 31bd 2e5e 6b3b
00000140: 4f3a 00bb 201f ccbc 3ade 40bd 4e00 debc
00000150: 7242 a3bc c282 1d3c 1469 d2bc 5577 6fbc
00000160: 6a14 a73c 242d ed3c db97 55bc 580a 193d
00000170: aab6 8e3c 76cc 3d3c aa8c 923c c4fa 62bc
00000180: d90d 40bb 17bc 413d e980 203c 0366 403d
00000190: 3008 26bc d621 6a39 69a7 913d ff9c ab3b
000001a0: 44f5 283d e672 013d cb8f 3b3d 270e 363d
000001b0: e012 123b 60f2 7a3c c464 313d 38cd 073d
000001c0: 0ea4 fc3b babb 07bd 8dc7 1f3d 4180 91bc
000001d0: 69a2 b23c 18c1 b2bc cb2f 5b3c b3a4 55bb
000001e0: 6e67 54bc b1df b93c 5d02 07bd bcf0 f03c
000001f0: d29d 4fbd 5bf0 d9bc 5550 2d3d 91c5 36ba
00000200: 2f5f 72bd ec7e 4d3d b0c7 4a3c fa15 e8bb
00000210: b15b 4ebc 898d a6ba ca0b ce3b 2547 b0bc
00000220: c75e f03b 1f3b 6cbc 945a 343d 3bb3 18bc
00000230: 4ae6 edbc afae 883d 3794 01bc 96fa 99bc
00000240: f3e6 e8bc 017f 3cbd 50ff 6fbc 0384 9fbd
00000250: ad6f d5bc f811 e73c b575 d9bc 6f32 773c
00000260: 3131 143c 6914 9c3c 6068 b73c 239f 113d
00000270: b10d 943c d926 0dbb a47f d8bc 03b3 873d
00000280: ea5a 90ba 7ebf 15bc b8bc 533d d433 50bd
00000290: f889 bcbd fc18 0ebc c563 453d d95c d23b
000002a0: 9d01 53bc 4df0 7bbd 77eb 073d 9625 59bd
000002b0: a13a 1dbd b9bb 03bd 88ce 94bb fba5 87bd
000002c0: fb2b a63c 629a a5bb 024f 2d3d bff8 e93c
000002d0: 672b 1dbd 600f f33c 5f80 3e3b 6429 35bc
000002e0: 9783 6ebc 03bf 18bd 7623 593c 36e0 3bbc
000002f0: ab2c 20bd 9653 dfbd a499 603b f65c 8cbd
00000300: 9e1a 41bd 898f 253c 42bc cebc deff 67bd
00000310: 39a7 d1bc 25c8 46bc 1f7f 09bd 64e9 f43c
00000320: cd3d b53c 6334 293d 1f0b 3a3d 9be6 53bd
00000330: 596b 983c a8f2 68bc 199c 2d3d 07f3 76bd
00000340: 2bdb 253d c1dc 603a 2268 bf3c 2369 20bc
00000350: 21f0 debc bac3 663d 0f48 2dbc 2c29 f93c
00000360: a6bc 6dbb d567 9b3b 3907 c13c 0fcd 933c
00000370: c6d9 61bb 056b b03a df59 04bd eb7e 90bb
00000380: a7df 0a3d 4c0f af3b debb f63c c40d d5bb
00000390: 49f9 323b 7dbb bfbc 7cc3 17bd c765 c03c
000003a0: 0189 2abb 24a0 8abc f651 68bd 1eb1 febc
000003b0: ea90 a33c 2bf4 ab3b ba74 1abc 9fef c03c
000003c0: a3f3 2a3d 3015 4e3c e8f4 b93c 910f 443c
000003d0: 1e69 6abc 5b7e 1fbd 8003 35bd 40e3 5b3c
000003e0: 64e3 403c 1882 82bc 6c1c ea3c 316d 073d
000003f0: 4bc1 383d 63a6 b7bc 9904 febb 5543 cd3c

contracts.1.lay.blocks.0.1.weight f4 [32]
0.025873575 0.03246475 -0.03877521 -0.026563806 -0.026354317 0.017131122 -0.024259722 0.029316923
-0.035267096 -0.02892294 -0.022273358 -0.037779596 -0.026921833 0.035791367 0.033998646 0.027712617
0.027993482 -0.041032057 -0.02721033 -0.013104561 0.020999916 -0.020327898 0.0005358404 -0.038023524
0.05637547 -0.034623425 0.028693879 -0.03648364 0.031675808 -0.01506592 -0.034358244 0.028829189
00000000: d2f4 d33c c2f9 043d c1d2 1ebd 579c d9bc
00000010: 02e5 d7bc 9156 8c3c 53bc c6bc 0b2a f03c
00000020: 3b74 10bd cdef ecbc 9e76 b6bc c7be 1abd
00000030: 2d8b dcbc f899 123d 2a42 0b3d 9205 e33c
00000040: 9652 e53c 3b11 28bd 33e8 debc 83b4 56bc
00000050: 0408 ac3c b186 a6bc a477 0c3a 8ebe 1bbd
00000060: f7e9 663d 4bd1 0dbd 6d0f eb3c df6f 15bd
00000070: 7ebe 013d 0cd7 76bc 3bbb 0cbd 312b ec3c

contracts.1.lay.blocks.0.1.bias f4 [32]
-0.010158231 0.0075656446 -0.0034928597 0.0038181187 -0.0074115056 -0.0128029175 0.00018956953 -0.0046372255
-0.009513428 -0.01570951 -0.0016709532 -0.028062735 0.0018236589 0.0029328614 -0.014041151 -0.00085391925
-0.031668145 0.02057733 0.008945212 0.007849845 -0.022032715 -0.0013223143 0.04901717 -0.01969703
-0.015915392 -0.013322362 -0.007662193 0.010030043 0.0055882507 0.023379525 -0.007130336 -0.018344024
00000000: b56e 26bc 3ae9 f73b 76e8 64bb 6739 7a3b
00000010: 37dc f2bb 54c3 51bc 2fc7 4639 def3 97bb
00000020: 36de 1bbc 3bb1 80bc e303 dbba d2e3 e5bc
00000030: d707 ef3a 4035 403b db0c 66bc 8dd9 5fba
00000040: 75b6 01bd ca91 a83c f08e 123c a39c 003c
00000050: f47d b4bc 8151 adba 3ac6 483d aa5b a1bc
00000060: ff60 82bc 0946 5abc 2213 fbbb 0d55 243c
00000070: a51d b73b 6b86 bf3c 98a5 e9bb 3546 96bc

contracts.1.lay.blocks.0.1.running_mean f4 [32]
0.0067760237 0.0059689907 -0.03280247 0.0014358264 0.0015969035 0.0023173997 -0.016947571 -0.02628599
0.026490467 0.00063773815 -0.007795081 0.0018617717 -0.019784747 0.01864114 0.016933361 -0.022000743
-0.0034241609 4.5399443e-05 -0.023280663 -0.016928922 -0.0002189461 -0.00010576043 -0.016145932 0.006153979
-0.029122332 -0.008774207 -0.01157984 -0.004491389 0.023300752 -0.0041983076 -0.010347505 -0.0064850743
00000000: 6809 de3b 8697 c33b e25b 06bd 5732 bc3a
00000010: 314f d13a 84df 173b a2d5 8abc b755 d7bc
00000020: 8902 d93c e22d 273a e16d ffbb b106 f43a
00000030: 9f13 a2bc 4eb5 983c d5b7 8a3c e73a b4bc
00000040: e367 60bb 486b 3e38 17b7 bebc 86ae 8abc
00000050: e594 65b9 b3cb ddb8 7944 84bc 51a7 c93b
00000060: f591 eebc b1c1 0fbc 5fb9 3dbc 802c 93bb
00000070: 38e1 be3c f591 89bb 9588 29bc bf80 d4bb

contracts.1.lay.blocks.0.1.running_var f4 [32]
0.00018385996 0.00020578297 0.00024833635 0.00011475565 8.8440145e-05 0.00014356994 0.00015930901 0.00021531002
0.00036750676 0.00016937127 9.001852e-05 0.00014983669 0.00013154441 0.0002953415 0.00030119953 0.00013122364
0.000132376 0.00056168373 0.00018658608 0.00015488676 0.00011454756 0.00015063325 0.00059572596 0.00023971955
0.00020141018 9.8761535e-05 0.00020664025 0.00037115018 0.0002125051 8.8129505e-05 0.00031671426 0.00013248409
00000000: 88ca 4039 72c7 5739 2433 8239 f8a8 f038
00000010: f178 b938 438b 1639 300c 2739 d8c4 6139
00000020: ecad c039 4199 3139 53c8 bc38 7b1d 1d39
00000030: 2fef 0939 11d8 9a39 51ea 9d39 1499 0939
00000040: 69ce 0a39 f53d 133a 52a6 4339 1969 2239
00000050: 4139 f038 4ef3 1d39 7e2a 1c3a 3a5d 7b39
00000060: a231 5339 321e cf38 92ad 5839 ef96 c239
00000070: e7d3 5e39 2bd2 b838 ab0c a639 6deb 0a39
